ckpts_encoder_3_combined/Encoder_epoch_490.pt (torch, 7383 bytes, 6 tensors)

0.weight f4 [20, 35]
00000000: 22e4 d040 2c95 4cc0 32be e9bf d4e8 9040
00000010: 52d4 a53f a46e b9bc 7f50 30c0 6737 403f
00000020: dd0e 2ebf ba21 2040 1971 b6bf 5f9d a73f
00000030: 71b3 8b3f d4c3 97be 4fd2 183f c744 a940
00000040: 46d5 92c0 be33 36c0 841e 0bbf 2dbb 84bf
00000050: f215 393f d829 1f40 afdd 2ec0 f3e9 073f
00000060: 0645 febc a965 9640 6416 87c0 18d1 cebf
00000070: f17e 423f 65dc 513f 192b 0e40 3f33 0941
00000080: cea7 2fc0 9d36 08c0 01cb 413b 018b 4585
00000090: f75f a784 9d85 5a05 a815 1185 0289 1284
000000a0: 1593 b984 f2d3 7983 226d 9b04 9ed3 c704
000000b0: aff1 e084 863f e103 4ad4 9303 6bfc f983
000000c0: 6018 bd83 fc23 a603 fa91 0086 c600 7285
000000d0: ce7a a904 2281 9085 4646 0605 412f d804
000000e0: 3206 b885 e3a2 bd83 2a27 bc84 3192 5184
000000f0: 92df 4786 148e 5086 1556 8d86 59bc 2f86
00000100: 0746 5086 d836 2286 8897 fd86 27a8 2f86
00000110: 9cbf 5806 7536 f687 19fc 20bf c741 9d3e
00000120: c5bc 2041 381f 39bf ffe6 a0bf 2632 e3be
00000130: 7ff4 7c3f 15a0 3940 0b6c 6940 e213 3cbf
00000140: 8e91 d63f 1d7c 8fbe 1fce ecbe a51d 4e3e
00000150: b5bd 4a3f bfc2 61bf 3743 a7be 6462 8f40
00000160: a596 40bf 29c0 8dbf d6c0 0bbf 0802 43bf
00000170: 6437 72bf 7982 aabf d4b0 89bf 381b 8bbf
00000180: 2e79 073e acf6 1e40 8b1c d33c 9658 ebbe
00000190: bc87 913f ff2e 2ec0 bc4f 2d3f 6fca 0341
000001a0: bba7 c0bd cb78 4585 0842 a784 118d 5a05
000001b0: 7e11 1185 c2e3 1384 269a b984 70c9 7a83
000001c0: f409 9b04 c1d3 c704 93ef e184 6cd0 e103
000001d0: 0fd0 9303 27c8 fa83 149d bc83 9296 a803
000001e0: e0be 0086 2682 7285 5ec6 a804 5794 9085
000001f0: 78fb 0505 d0a3 d704 ab34 b885 d9c8 c083
00000200: 3a65 bd84 5942 5184 56ee 4786 b800 5186
00000210: 3b5c 8d86 79e5 2f86 b572 5086 de7a 2286
00000220: f2b1 fd86 5384 2f86 b231 5906 4f48 f687
00000230: b48f 4485 cae4 a684 5d5f 5a05 157e 1185
00000240: 1d8d 1384 bf13 b984 1476 7583 8703 9c04
00000250: 4fcd c704 6c54 e084 e275 e103 ab22 9003
00000260: cb6b fa83 2993 b683 67de a603 696e 0086
00000270: 8e39 7285 0451 a904 b71d 9085 9a34 0605
00000280: 1935 d704 5383 b785 b1f6 ba83 1929 bd84
00000290: ed7a 5184 2397 4786 0b76 5086 8b1e 8d86
000002a0: ba8a 2f86 db19 5086 c62a 2286 2eaf fd86
000002b0: d054 2f86 2eb4 5706 812c f687 01f2 c13f
000002c0: 3c3e 4f40 34d9 4440 e23d 0540 b36c b23e
000002d0: 6aea 3140 4125 ff3f 9477 d63f fede e03f
000002e0: 6d76 1d40 b8a0 ce3f 8a41 823f 30d5 ac3f
000002f0: df30 e53f 34c9 c43f 8664 cb3e e6ce 8e3f
00000300: 7b44 693f 8231 7d3f 03be 1dbf 7a71 01bd
00000310: 72e9 623f eeb3 fdbe 586a 66bf bb03 a2be
00000320: 76cd 69be acad ea3e b067 b13f 6ba2 3a3f
00000330: 517c d8bc 0276 ed3e 79a1 4540 83c5 5f40
00000340: 81f8 a540 d944 0a3d f97b 4585 e320 a784
00000350: c793 5a05 7d8d 1185 20ec 1284 1874 b984
00000360: 5694 7983 e5b4 9a04 7586 c704 947e e184
00000370: 5a34 e103 8d21 9303 2b4a fb83 125b bf83
00000380: a50f a603 4171 0086 5271 7285 749f a804
00000390: b377 9085 691a 0605 bcc7 d704 3aee b785
000003a0: 830d bf83 a373 bc84 83c2 5084 b3dc 4786
000003b0: 9c8f 5086 c857 8d86 53b3 2f86 034a 5086
000003c0: 2e40 2286 6081 fd86 5f8e 2f86 d4ab 5806
000003d0: 673c f687 5351 4485 3590 a684 3289 5a05
000003e0: dfad 1185 0275 1384 7d52 b984 ea80 7a83
000003f0: 14ef 9b04 f120 c804 42c6 e084 1879 e103
6.5278482 -3.1966047 -1.8261168 4.5284214 1.295542 -0.022635765 -2.754913 0.7508454
-0.6799143 2.5020585 -1.4253265 1.3094901 1.0914136 -0.29641593 0.59695905 5.2896457
-4.5885344 -2.846908 -0.5434344 -1.0369622 0.7229911 2.486929 -2.7322805 0.53091353
-0.031038772 4.6999097 -4.221483 -1.615756 0.7597495 0.8197692 2.2213805 8.575011
-2.744617 -2.1283333 0.0029570463 -9.2884265e-36 -3.934964e-36 1.02748516e-35 -6.821845e-36 -1.7225128e-36
-4.3628364e-36 -7.3417825e-37 3.6540548e-36 4.6979015e-36 -5.28841e-36 1.3238896e-36 8.688623e-37 -1.4692857e-36
-1.1114018e-36 9.764865e-37 -2.418137e-35 -1.13789274e-35 3.9844487e-36 -1.3589131e-35 6.313557e-36 5.0824752e-36
-1.7305553e-35 -1.1145819e-36 -4.4234554e-36 -2.463496e-36 -3.7591994e-35 -3.9224835e-35 -5.316479e-35 -3.3052218e-35
-3.91719e-35 -3.0509106e-35 -9.539068e-35 -3.303738e-35 4.0765857e-35 -3.7045973e-34 -0.6288467 0.30714247
10.046086 -0.7231326 -1.2570494 -0.44374198 0.9881057 2.9003956 3.6472194 -0.7346784
1.676317 -0.28024378 -0.46251008 0.20128496 0.7919572 -0.88187784 -0.32668468 4.4807606
-0.75229865 -1.1074268 -0.5459112 -0.76174974 -0.9461577 -1.3321067 -1.0757089 -1.0867682
0.1322982 2.4838057 0.025770446 -0.45966023 1.1369548 -2.7216184 0.6769979 8.236922
-0.09406992 -9.285082e-36 -3.932215e-36 1.02762205e-35 -6.82108e-36 -1.7384348e-36 -4.3634854e-36 -7.3699636e-37
3.6449465e-36 4.697914e-36 -5.311726e-36 1.3272163e-36 8.687651e-37 -1.4739632e-36 -1.108571e-36 9.908722e-37
-2.4214357e-35 -1.140269e-35 3.967878e-36 -1.3596186e-35 6.2998175e-36 5.0696695e-36 -1.7322624e-35 -1.1330858e-36
-4.452665e-36 -2.4598297e-36 -3.7602842e-35 -3.930906e-35 -5.3173826e-35 -3.3082432e-35 -3.9204725e-35 -3.0559082e-35
-9.542949e-35 -3.3011058e-35 4.0849674e-35 -3.7056465e-34 -9.24227e-36 -3.9236522e-36 1.0267826e-35 -6.841025e-36
-1.7344563e-36 -4.3511425e-36 -7.2134576e-37 3.6678663e-36 4.697322e-36 -5.2739676e-36 1.3251376e-36 8.471519e-37
-1.4718427e-36 -1.0730785e-36 9.807664e-37 -2.415524e-35 -1.13893564e-35 3.980611e-36 -1.355261e-35 6.310311e-36
5.059502e-36 -1.7257478e-35 -1.0988735e-36 -4.447143e-36 -2.4624277e-36 -3.7538778e-35 -3.9207176e-35 -5.3083184e-35
-3.3015762e-35 -3.9139448e-35 -3.0500239e-35 -9.5425426e-35 -3.2976152e-35 4.056938e-35 -3.7040123e-34 1.5151979
3.2381735 3.075757 2.081902 0.34848556 2.7799325 1.9933244 1.6755242 1.7568052
2.4603531 1.6142797 1.0176251 1.350256 1.7905539 1.5373902 0.3972513 1.115689
0.9112012 0.9890367 -0.6161806 -0.03160236 0.8863746 -0.49551338 -0.9000602 -0.3164347
-0.22832283 0.45835626 1.3859768 0.7290408 -0.026426466 0.46379095 3.0879805 3.4964302
5.186585 0.033757064 -9.285666e-36 -3.9291713e-36 1.0277453e-35 -6.8438545e-36 -1.727064e-36 -4.3599906e-36
-7.3344805e-37 3.637135e-36 4.6908154e-36 -5.301349e-36 1.3236331e-36 8.647586e-37 -1.4769482e-36 -1.124688e-36
9.760195e-37 -2.415733e-35 -1.1399599e-35 3.9643045e-36 -1.3585665e-35 6.3055005e-36 5.0729684e-36 -1.7296748e-35
-1.1229073e-36 -4.4304783e-36 -2.4539598e-36 -3.7589884e-35 -3.922596e-35 -5.316729e-35 -3.3045588e-35 -3.9174827e-35
-3.0515965e-35 -9.535812e-35 -3.301844e-35 4.0751324e-35 -3.7049467e-34 -9.2308126e-36 -3.9158846e-36 1.02755095e-35
-6.849802e-36 -1.7333494e-36 -4.3569045e-36 -7.3616383e-37 3.6659883e-36 4.7050026e-36 -5.2844218e-36 1.3252113e-36

0.bias f4 [20]
00000000: 1ada e5bc 7536 f687 48d8 8f3d 4f48 f687
00000010: 812c f687 0c64 e2bb 673c f687 4535 f687
00000020: 2837 f687 8243 f687 9a3b f687 b948 f687
00000030: 6cf5 8f3d d2e5 95bd a4c0 773d e344 f687
00000040: 727f a3bd fe4e f687 1e3a f687 8b3a f687
-0.0280581 -3.7045973e-34 0.07023674 -3.7056465e-34 -3.7040123e-34 -0.006908899 -3.7049467e-34 -3.7045275e-34
-3.7046384e-34 -3.7053644e-34 -3.7048997e-34 -3.7056709e-34 0.070292324 -0.07319225 0.06048645 -3.7054454e-34
-0.07983293 -3.7060394e-34 -3.7048124e-34 -3.7048375e-34

2.weight f4 [20, 20]
00000000: 47fe 0a83 f1ac 0d83 4cc0 1602 89d4 de82
00000010: e3ca 2903 967a ea82 e820 0a01 cc9b 1981
00000020: 9490 5883 8c7e 1103 25d5 5583 3880 4383
00000030: d8e1 2f03 3e92 0d82 412e 3d83 81b8 2e03
00000040: 0f9c a602 a7ec 6b82 5708 1703 7a00 8c82
00000050: 50b0 2581 8267 1303 5832 f381 38fe 0301
00000060: 56af bf82 7484 1c02 5140 1503 20ac fd82
00000070: 97c7 f682 f168 1e83 02b3 e282 8a37 5003
00000080: 13fb 2703 dd8a 9582 a6c5 0102 7523 0003
00000090: 5af4 4102 b593 6182 6c24 bc02 7f48 a582
000000a0: 0c1c 1602 e2a6 4c83 1e81 a682 d7f7 5383
000000b0: 669b 5883 7420 1101 e734 3b03 8bd4 9502
000000c0: 2145 2c02 8d5b 1e03 3096 3801 9373 ab82
000000d0: 244f 4003 bb97 3203 38e1 a702 1309 4583
000000e0: 17e4 b601 b509 0f03 0082 2803 9234 4102
000000f0: 6046 5703 2e61 1303 19ba 7482 ce8c 6882
00000100: 4ed5 5383 97bf d382 f827 8d82 6b65 c602
00000110: a234 3003 aefb 0583 86ac 3e83 127d 0603
00000120: c8cc 7280 7b75 6d02 b002 2982 0f87 db82
00000130: 7c1d 7701 a680 dd02 1190 2783 da7b f082
00000140: 7bfb 5283 4656 1903 c605 5c02 8162 2603
00000150: 44cb ae02 8a6d d881 b395 5d82 bcaf 0982
00000160: 92c7 9d02 6ad1 4d03 2554 0703 414f 7482
00000170: 76c5 2083 4fbd 1d83 ad1a 0d03 f026 3483
00000180: c710 4702 e1e6 d502 1ed8 3603 9db9 1e03
00000190: c010 2982 f028 e402 9ae2 c981 b87c 0003
000001a0: 4d88 9802 d7fb 3703 7616 fd02 53ac 6b82
000001b0: 9a1d 0d83 bd06 0203 7ff9 4c83 b3f2 0a03
000001c0: 7221 3983 ce78 8e82 bf35 4902 5027 3e83
000001d0: 4a10 be02 a07f 3982 b881 4c82 a27c 1f83
000001e0: 98df 3d03 dca7 8a81 bd4f 1283 ea4c 2002
000001f0: fc1f 3603 6b81 8702 b3b6 2683 9124 d382
00000200: a5f8 de82 9dfd 0d83 cb44 1903 3141 1583
00000210: b4c3 4a03 9041 9b81 638e 2603 74e0 f102
00000220: ace4 2702 aec8 d202 cca6 0083 f7e9 3383
00000230: 7de1 8ebf 3caa 3486 bc53 2ac0 1354 3686
00000240: 94fe 3586 a083 4c3f 2084 3486 8506 3686
00000250: 7881 3686 d4b6 3586 2f87 3486 144c 3686
00000260: 8fa6 213f bd57 a0be 49f1 b9be 3c5f 3686
00000270: 5a03 5140 716d 3486 025c 3686 fd7f 3686
00000280: aa81 93c0 88cc 0406 2a38 5f3f 2cbc 0406
00000290: 6afa 0406 e367 193f a2ea 0406 70c3 0406
000002a0: 5ae2 0406 00e4 0406 aac6 0406 70ea 0406
000002b0: 1f9e 043f 2b2f 2740 6506 5ec0 b493 0406
000002c0: cb36 9e40 54b3 0406 a1cb 0406 87d8 0406
000002d0: 30db 4e41 fe23 2087 f847 5ebe 6b15 2087
000002e0: 4309 2087 3c8a 8f40 e11f 2087 2d18 2087
000002f0: 0a20 2087 2916 2087 cc22 2087 520e 2087
00000300: e5de cac0 e1ca 7bbf b9de 0f41 9418 2087
00000310: cb4f 0240 b12a 2087 f10c 2087 171d 2087
00000320: c164 cfbf 88a5 3e07 9700 5e3f 364f 3e07
00000330: 3b94 3e07 3f07 8940 036d 3e07 4ea1 3e07
00000340: b7ae 3e07 8f5c 3e07 e049 3e07 265b 3e07
00000350: a494 2ac0 768e acc0 9003 97c0 818c 3e07
00000360: 68ea 2841 d237 3e07 5b85 3e07 479c 3e07
00000370: f2d3 4102 e0db ba82 e176 4e03 3a5a 3183
00000380: 8195 0b83 b9b8 5082 0d1a 2f03 e07e 4a03
00000390: 6087 0a03 ac29 3281 01e0 5182 9d98 5182
000003a0: 249c 3983 8b45 2482 2dd3 d182 fba6 5383
000003b0: 6dce 3b82 7964 8882 2172 3303 2367 0180
000003c0: 24bc 2e03 f71e 5683 80c9 ce00 d46f 0b01
000003d0: b395 1903 0954 4e03 f421 7f81 3405 a982
000003e0: 6ccc 4d83 8bd7 9002 2a0e 1d03 ad5e f402
000003f0: f3b1 e482 3244 3782 76f5 3c03 9b94 2303
-4.084645e-37 -4.1634703e-37 1.1075446e-37 -3.2741957e-37 4.989754e-37 -3.445357e-37 2.5370206e-38 -2.821344e-38
-6.3642662e-37 4.275694e-37 -6.283975e-37 -5.7452538e-37 5.1687134e-37 -1.0401013e-37 -5.5595205e-37 5.1345804e-37
2.448108e-37 -1.7332989e-37 4.4384485e-37 -2.0571425e-37 -3.0432212e-38 4.331824e-37 -8.933634e-38 2.4243293e-38
-2.8165566e-37 1.1499082e-37 4.3860996e-37 -3.7273804e-37 -3.626101e-37 -4.6552494e-37 -3.331046e-37 6.118946e-37
4.936511e-37 -2.1973286e-37 9.534146e-38 3.765652e-37 1.4249526e-37 -1.6572779e-37 2.7645022e-37 -2.4286182e-37
1.1028309e-37 -6.0141784e-37 -2.4465617e-37 -6.2291833e-37 -6.3655084e-37 2.6655578e-38 5.501509e-37 2.2015576e-37
1.2656403e-37 4.653712e-37 3.3903217e-38 -2.5192528e-37 5.651458e-37 5.2483677e-37 2.4667714e-37 -5.7903513e-37
6.7183534e-38 4.2035066e-37 4.9519995e-37 1.4194488e-37 6.326361e-37 4.3310974e-37 -1.7979696e-37 -1.7085077e-37
-6.225219e-37 -3.111363e-37 -2.0741029e-37 2.9151696e-37 5.178217e-37 -3.93741e-37 -5.603403e-37 3.9522634e-37
-1.0542708e-38 1.7445725e-37 -1.241693e-37 -3.2256678e-37 4.538789e-38 3.2546872e-37 -4.924227e-37 -3.5335918e-37
-6.200214e-37 4.5061696e-37 1.6164704e-37 4.8896092e-37 2.568367e-37 -7.950305e-38 -1.6279477e-37 -1.0115604e-37
2.3183624e-37 6.048448e-37 3.9769528e-37 -1.7949034e-37 -4.724645e-37 -4.635547e-37 4.14668e-37 -5.2941944e-37
1.4625026e-37 3.1430055e-37 5.3733083e-37 4.66451e-37 -1.2420966e-37 3.3525086e-37 -7.4160896e-38 3.775899e-37
2.2412625e-37 5.4067965e-37 3.71879e-37 -1.7314528e-37 -4.1470157e-37 3.82113e-37 -6.023662e-37 4.083316e-37
-5.4405007e-37 -2.0934363e-37 1.4782572e-37 -5.588111e-37 2.792734e-37 -1.362828e-37 -1.502478e-37 -4.686897e-37
5.579878e-37 -5.093406e-38 -4.299708e-37 1.1777017e-37 5.352171e-37 1.991075e-37 -4.8992744e-37 -3.1024652e-37
-3.2762683e-37 -4.172731e-37 4.504163e-37 -4.3862e-37 5.958712e-37 -5.7032085e-38 4.8946467e-37 3.5540597e-37
1.2334848e-37 3.0971911e-37 -3.7807293e-37 -5.287195e-37 -1.1162564 -3.3979306e-35 -2.6613607 -3.4292163e-35
-3.422935e-35 0.79888344 -3.3951307e-35 -3.4235185e-35 -3.4325514e-35 -3.4176637e-35 -3.3953555e-35 -3.428629e-35
0.63144773 -0.3131694 -0.36316898 -3.4300363e-35 3.2658296 -3.3934642e-35 -3.4297992e-35 -3.4324426e-35
-4.609578 2.4976707e-35 0.87195075 2.4964688e-35 2.5010416e-35 0.59924144 2.4998822e-35 2.4970025e-35
2.4992738e-35 2.499395e-35 2.4972396e-35 2.4998678e-35 0.51803774 2.612254 -3.4691403 2.4934956e-35
4.9441886 2.495819e-35 2.4976044e-35 2.498552e-35 12.928513 -1.2047639e-34 -0.21707141 -1.2043356e-34
-1.2039784e-34 4.4856243 -1.204643e-34 -1.2044167e-34 -1.2046478e-34 -1.2043574e-34 -1.2047288e-34 -1.204127e-34
-6.339709 -0.98356444 8.991876 -1.2044285e-34 2.0361202 -1.2049608e-34 -1.2040865e-34 -1.2045611e-34
-1.6202623 1.4342657e-34 0.8671965 1.4317289e-34 1.4337572e-34 4.2821345 1.4326047e-34 1.4341414e-34
1.4345355e-34 1.4321212e-34 1.4315721e-34 1.4320797e-34 -2.6653223 -5.3923903 -4.719185 1.4335302e-34
10.557228 1.4310415e-34 1.4333201e-34 1.4339937e-34 1.4240226e-37 -2.7456446e-37 6.0674425e-37 -5.21192e-37
-4.102005e-37 -1.5334439e-37 5.1457783e-37 5.950811e-37 4.070996e-37 -3.2723335e-38 -1.5419181e-37 -1.5398693e-37
-5.4545854e-37 -1.2068775e-37 -3.0830999e-37 -6.219901e-37 -1.3797832e-37 -2.0041072e-37 5.2734386e-37 -1.28834e-40
5.134998e-37 -6.2924494e-37 1.8990397e-38 2.56105e-38 4.5134505e-37 6.0634427e-37 -4.6860463e-38 -2.4835305e-37
-6.047875e-37 2.1282614e-37 4.6154413e-37 3.590692e-37 -3.3603727e-37 -1.3464288e-37 5.553001e-37 4.8071986e-37

2.bias f4 [20]
00000000: 2ed9 f382 bbd8 d002 c19e a002 9d94 9082
00000010: 7855 9382 c2ee 4503 cb69 5982 a686 503e
00000020: c5a2 adbf a158 953d 881f 243f 0054 4903
00000030: 5d58 8402 d7e5 b681 5608 cd02 c96a 6e3d
00000040: b02d 363e a675 cf82 a80a d03e 2667 4e3e
-3.5830296e-37 3.068725e-37 2.3601007e-37 -2.1244198e-37 -2.1648765e-37 5.8167177e-37 -1.5973003e-37 0.20363864
-1.3565298 0.07292295 0.6411061 5.916502e-37 1.9446375e-37 -6.7186045e-38 3.0126827e-37 0.058207307
0.17790866 -3.0483443e-37 0.4063313 0.20156536

4.weight f4 [3, 20]
00000000: 9864 9c80 4a89 3283 c0df 9782 0e12 e102
00000010: 7c9e 3b03 5525 f382 594c 3e82 c6a7 3540
00000020: 8ead f940 879e 8bc1 5fff e9c0 29a2 2783
00000030: a48e cd82 9ce5 6982 b089 dd02 9307 97bf
00000040: 14f1 1fc0 a315 9d02 e7fa 0c41 0a5b 133e
00000050: 4cf5 bc02 6234 0483 a436 3583 98c9 0403
00000060: b6f5 b480 e78e 9302 8d70 2983 70ce 4d40
00000070: 56ac 53bf dc9f 6140 5523 3441 f127 0283
00000080: c878 ba02 4d6f bf02 b202 5302 6b9b 543f
00000090: 2079 c9bd 3688 8d02 b228 833f 9258 8bc0
000000a0: 149f 7602 71f7 2103 b284 8483 77c0 bc82
000000b0: 8ad5 2a83 7da6 1983 4124 ea82 79eb c4be
000000c0: bc20 0ac0 cfd1 e3be 1c9b 11c0 1a6d 4f83
000000d0: e47a d183 4596 f503 37ce 8f02 e361 e6c0
000000e0: 64d2 38c1 e09f 6781 f3d5 07be 79ef 113f
-1.4362424e-38 -5.24671e-37 -2.2315882e-37 3.3071141e-37 5.513629e-37 -3.5727068e-37 -1.3980906e-37 2.838365
7.802436 -17.452406 -7.312423 -4.926304e-37 -3.0203914e-37 -1.7184031e-37 3.255206e-37 -1.1799186
-2.4990892 2.3081496e-37 8.811255 0.14390197 2.776491e-37 -3.8851446e-37 -5.3253844e-37 3.902273e-37
-1.6618534e-38 2.168173e-37 -4.979384e-37 3.215725 -0.8268484 3.525382 11.258626 -3.8249417e-37
2.7399569e-37 2.8128811e-37 1.5502605e-37 0.8304965 -0.09837556 2.079627e-37 1.0246794 -4.354562
1.8118879e-37 4.7597696e-37 -7.788728e-37 -2.7734587e-37 -5.020364e-37 -4.515378e-37 -3.4404018e-37 -0.384609
-2.158248 -0.4449601 -2.2750921 -6.0957075e-37 -1.231213e-36 1.4434306e-36 2.1130323e-37 -7.199449
-11.551365 -4.2542704e-38 -0.13265209 0.5700603

4.bias f4 [3]
00000000: 9d5e 64be 9d74 e03e bb68 ad3d
-0.22301717 0.4383897 0.084672414
