checkpoints_cinn/ckpts_jungles_AIO/CINN_epoch_75.pt (torch, 147045 bytes, 56 tensors)

cinn.module_list.1.global_scale f4 [1, 3]
00000000: 0fda 8a40 411b ab40 c0b6 b140
4.3391185 5.347077 5.5535583

cinn.module_list.1.global_offset f4 [1, 3]
00000000: 2243 3c3e 43ec 7d3f 4c53 d43b
0.18384984 0.9918863 0.0064796563

cinn.module_list.1.w_perm f4 [3, 3]
00000000: 0000 0000 0000 803f 0000 0000 0000 803f
00000010: 0000 0000 0000 0000 0000 0000 0000 0000
00000020: 0000 803f
0.0 1.0 0.0 1.0 0.0 0.0 0.0 0.0
1.0

cinn.module_list.1.subnet.0.weight f4 [100, 36]
00000000: 6d37 863e 089a dc3e b481 72bd 2640 f6bc
00000010: 198f c23d ff7a 49bd 1bab 2b3b b877 13bd
00000020: 26b5 c23c 4dd2 943d 674d a43d ca50 32bd
00000030: a8b6 6d3d 89dd 2e3d 1a45 213c 418f 883c
00000040: 965a 4e3d 4d1e 49bd 1753 093c 915f 303e
00000050: 02e2 19bc 0fc7 0e3e a0cb fd3d 32a2 95bc
00000060: a38b b83d d30d 6e3d 5381 973d 08c0 8a3d
00000070: f90d 1d3e 9971 a03e 07da e03d 0d3c 883e
00000080: 07aa 5a3e 9b6b aa3e 7f32 e43e 4c5e 173f
00000090: 1edf 913e 7ba7 733e 4424 52be a8f6 22be
000000a0: aac1 d83e da1e 3cbe e90c b73d fe42 29be
000000b0: 2358 233e 6ede b03e a378 bf3e 7875 30be
000000c0: 7de1 973e 24ba 7b3e 13f4 ea3d f271 0c3e
000000d0: 50c9 8a3e caae 6dbe 0248 2fbe 6039 1e3f
000000e0: 7d1e 3dbe dba4 023f 6734 ef3e 6b79 52be
000000f0: 7f0e 9f3e 6df9 6b3e 7c09 8a3e 00ac 6ebe
00000100: 2dfa 1abe 6aec 443f 0e2c 3bbe 3f00 fd3e
00000110: 599d e13e 9f1a f1bd d33b 13bd 44db 453f
00000120: 5f4f 853e aaca d83e f550 53bd b1eb dcbc
00000130: 32fa 9c3d b5a9 35bd 692a c3ba c18e 05bd
00000140: 5780 863c 232f 6a3d 8b9f 823d 10b4 1abd
00000150: 724d 3b3d ac6c 093d f67a 8f3b aa40 2a3c
00000160: 84a1 203d f4e4 38bd eb13 233c 0d5b 0d3e
00000170: 6e4b 24bc 9e79 e83d 9fd2 c33d 9ec9 d2bc
00000180: a979 923d aef9 283d bea1 643d b809 5c3d
00000190: d8bf 0f3e d4f8 883e d314 d53d a465 663e
000001a0: 5c5a 3e3e 34d1 aa3e b13f e13e 2d36 0a3f
000001b0: 556a 933e 7f86 ec3e 5a0a 7dbd ad6c f6bc
000001c0: ec4e ca3d 3a56 51bd 7281 1b3b d4fc 1bbd
000001d0: 7ee2 c63c 89d8 983d 7ec8 a93d 01df 34bd
000001e0: 84d9 7b3d 2166 3a3d b0db 393c a529 8d3c
000001f0: 74d0 5b3d d3d6 3fbd db27 353c ee0e 363e
00000200: 5108 d7bb f4ef 193e 404e 043e c3f7 efbc
00000210: 31f1 d03d 1e19 713d 19ca 9c3d 1041 933d
00000220: 49b0 223e b610 ac3e 6397 e13d bea1 8b3e
00000230: b458 723e e28a b33e a1c5 e93e 7b2e 193f
00000240: 97cb 843e faf8 ea3e 9847 7abd 786c febc
00000250: 06c1 c93d 65e1 4ebd 1556 083b f40a 17bd
00000260: c620 d33c 4be9 983d be78 aa3d 8d2f 35bd
00000270: e23f 7a3d f842 3b3d b54c 303c c5aa 883c
00000280: 7b1b 5a3d a14c 47bd 79f3 2c3c e0f0 343e
00000290: be9e 23bc 74f2 143e 6209 023e b457 e2bc
000002a0: 09c7 c13d c0f8 7a3d 9225 a03d e65d 8b3d
000002b0: 5c0e 243e f8f5 a43e f5d4 e13d 8861 873e
000002c0: 088e 623e ceaa b03e b136 da3e 9ac5 133f
000002d0: 8522 3b3e 7685 273e 9ed9 5abe a939 33be
000002e0: 1988 d73e b06c 4bbe 9162 ae3d 7db3 36be
000002f0: 23a2 203e 0e9c b03e 1bee bf3e d197 3cbe
00000300: 614d 973e 1189 7b3e 7713 e43d b3e0 083e
00000310: 92b9 893e d74a 7ebe f562 46be c3e1 1d3f
00000320: 68af 4dbe 5e92 043f 83b5 f03e d4b7 5fbe
00000330: f7fa a13e d523 6b3e 41d0 8a3e 1148 83be
00000340: d2d8 28be 4e82 433f 6a68 58be b283 023f
00000350: 91b4 df3e 8de5 17be fa74 3bbd 59c4 523f
00000360: fa63 843e 53f5 dc3e 1a0e 63bd 319a f0bc
00000370: ef9f b23d 045c 3fbd ea05 7b39 fd88 0dbd
00000380: 2cf6 a13c 3ae3 853d b528 953d de29 25bd
00000390: 81d2 573d 1d2c 1c3d f7ae 043c f924 623c
000003a0: 869d 3a3d 5053 2ebd 56eb 283c 16cf 1c3e
000003b0: 871a 9dbb ec80 003e 9553 df3d 7d7b d2bc
000003c0: 25a5 a63d 42ec 533d 0c94 8c3d 65b6 733d
000003d0: c732 183e 8783 903e 7527 c63d efa6 6b3e
000003e0: d525 4a3e aa5a ac3e a580 d43e bce7 073f
000003f0: 0d93 3d3d ff27 313d b99d 51bc 8624 28bc
0.26214162 0.43086267 -0.059205726 -0.030059885 0.0949995 -0.049189564 0.0026194516 -0.036002845
0.023768019 0.07266674 0.08022576 -0.043534078 0.058035523 0.04269174 0.009843135 0.016669871
0.05037936 -0.049101163 0.008381627 0.17223956 -0.009392263 0.13943122 0.12392354 -0.018265817
0.090110086 0.058118653 0.073977135 0.06774908 0.15337361 0.31336668 0.109790854 0.26608315
0.21353923 0.3328522 0.44569775 0.5912826 0.28490537 0.23794357 -0.20521647 -0.15914404
0.42335254 -0.18371144 0.08938009 -0.16529462 0.1595159 0.345447 0.37396726 -0.17232311
0.2966422 0.24582726 0.11472335 0.13715342 0.27106714 -0.23211208 -0.17117313 0.618063
-0.18468662 0.510328 0.46719667 -0.2055413 0.31065747 0.23044367 0.2696036 -0.233078
-0.15134497 0.7692324 -0.18278524 0.4941425 0.4406536 -0.11772656 -0.035945725 0.772877
0.26037118 0.4234212 -0.05159088 -0.026967855 0.076649085 -0.0443513 -0.0014889959 -0.032606844
0.01641862 0.05717386 0.06378087 -0.037769377 0.045728154 0.033550903 0.0043786718 0.010391394
0.039216533 -0.04514022 0.009953479 0.13804264 -0.010027749 0.11351322 0.09561657 -0.025730904
0.07152111 0.041253738 0.055818312 0.053720206 0.14038026 0.2675234 0.104043625 0.2249971
0.18589157 0.33362734 0.43993905 0.53988916 0.28792062 0.46196362 -0.06177745 -0.030081118
0.098783344 -0.051107623 0.0023728278 -0.038082913 0.024277922 0.07463176 0.08290194 -0.044157986
0.061486736 0.045507554 0.0113438815 0.017231772 0.053665593 -0.04683573 0.011056866 0.17779133
-0.0065622707 0.15032941 0.12920475 -0.029292947 0.102022536 0.058861844 0.076557346 0.07190144
0.1588756 0.336065 0.11015203 0.27271837 0.2366665 0.35066897 0.4565859 0.5983655
0.25936577 0.4589308 -0.061103433 -0.031057581 0.098512694 -0.05050792 0.0020803262 -0.03687568
0.025772464 0.07466372 0.08323811 -0.0442348 0.06109608 0.045718163 0.010760476 0.016682992
0.053248864 -0.048657063 0.010556095 0.17670012 -0.009986578 0.14545614 0.12698892 -0.02762971
0.09461791 0.061272383 0.07819666 0.06805019 0.16021103 0.3221891 0.110269465 0.26441598
0.22124493 0.34505314 0.4261985 0.5772339 0.18274887 0.16359505 -0.21372077 -0.17502464
0.42096022 -0.1986568 0.08514894 -0.17841907 0.1568685 0.3449406 0.37486348 -0.18417288
0.29551223 0.24564005 0.11136525 0.13366966 0.2689939 -0.24833237 -0.19373687 0.6167261
-0.20086443 0.5178584 0.47013482 -0.21847469 0.31636783 0.22962888 0.2711201 -0.2564092
-0.1648896 0.76370704 -0.21133581 0.509822 0.4369245 -0.1483366 -0.045765854 0.8233085
0.25857526 0.43155918 -0.05543337 -0.0293704 0.08721911 -0.046718612 0.00023939429 -0.03455447
0.019770704 0.06537481 0.07283155 -0.04032313 0.052690987 0.038128007 0.0080983555 0.01380276
0.045560382 -0.04255992 0.010310015 0.15313372 -0.004794422 0.1254918 0.10904614 -0.02569365
0.081369676 0.051738985 0.06864175 0.059500117 0.1486312 0.28225347 0.096754946 0.23012899
0.19740994 0.3366292 0.41504398 0.53087974 0.046282817 0.043251034 -0.012793952 -0.010262614

cinn.module_list.1.subnet.0.bias f4 [100]
00000000: 1b17 303f e757 2abd 3c55 373f d235 373f
00000010: 3300 2f3f c7c9 ae3c ff22 2f3f 3a81 49bc
00000020: 55bd 9c80 e34d 27bd 335a 303f 62ee 373f
00000030: c4c9 2e3f ad5e 5d3a e1aa c63e 4a93 303f
00000040: af10 283e 991f 303f 266a 343f 89c4 043e
00000050: fb37 e2bb 472a 2d3f 25ba 0600 3228 23bd
00000060: 910c 8a3c 7484 9a81 109f 25bd dc0c 3882
00000070: ee91 333f 78ad 363f b60e 753f 19e3 3a3f
00000080: 5eb5 593f 4a5b 9083 9d4e 453f fed9 323f
00000090: e0ca 0280 7883 26bd 26d1 0abd 766d 25bd
000000a0: 11cf 333f 1690 07bd 3588 353f 3c23 633f
000000b0: 4c06 1fbd 8fbf 393f d2b6 2e3f d967 333f
000000c0: 0b81 983f ed88 303f 9175 c7bb fc7a 383f
000000d0: 73de 373f 64b6 3c3f c0a3 3c3f 185b 7f3f
000000e0: e38f 2d3f 9fd8 05bd 3b7e 24bd 920d ce83
000000f0: 9da4 353f 5aa3 9a3f 5e14 2d3f a698 a73f
00000100: 164d 343f 42de 2c3f 568e f7bc bf0d 9e3c
00000110: 1922 343f ef89 20bd c8b3 563f 60af 323f
00000120: e031 813e 5610 3f3f 7357 18bc e6b4 3a3f
00000130: 0b7a 393f f696 07bd 7d34 26bd af59 553f
00000140: b731 3e3f 07b7 c83c 2487 8e3c 6a7f bebb
00000150: 4237 03bd 36f2 303f 9f02 353f be14 25bd
00000160: 0db7 603f bb6e 483f 4192 403f bc9c 143e
00000170: caf3 3e3f 4177 eb81 f3a7 2e3f 3a4f c382
00000180: 0254 623f 039b 593f fcdd 323f 164c b03f
0.68785256 -0.041587736 0.7161443 0.715665 0.6835968 0.02133645 0.68412775 -0.012298876
-1.4394257e-38 -0.040845763 0.68887633 0.7184812 0.6827662 0.0008444589 0.38802245 0.68974745
0.16412614 0.68798214 0.7047447 0.12965597 -0.006903646 0.67642635 6.17789e-40 -0.039833255
0.016851695 -5.6760727e-38 -0.040434897 -1.3521875e-37 0.70144546 0.7135844 0.9572557 0.73002774
0.8504237 -8.484518e-37 0.7707308 0.6986388 -2.56449e-40 -0.040652722 -0.033890866 -0.040387593
0.70237833 -0.033096395 0.7091096 0.8872564 -0.038824365 0.7255792 0.6824771 0.70080334
1.1914381 0.6895893 -0.006087013 0.7206266 0.71823806 0.73715806 0.7368736 0.99748373
0.6779768 -0.03267729 -0.040159445 -1.2110707e-36 0.70954305 1.2081101 0.676092 1.309346
0.70430124 0.6752664 -0.030219238 0.019293664 0.7036453 -0.039194044 0.83868074 0.6979885
0.25233364 0.746343 -0.009298193 0.7293228 0.7245185 -0.033102952 -0.0405774 0.8333997
0.7429461 0.024501337 0.017398424 -0.005813529 -0.03203512 0.69119585 0.70707124 -0.040302984
0.87779313 0.7829396 0.75223166 0.14512914 0.7459074 -8.649649e-38 0.6822502 -2.8698149e-37
0.88409436 0.85002154 0.6986997 1.377322

cinn.module_list.1.subnet.2.weight f4 [2, 100]
00000000: f479 3a3f 253e ba3c 3d6d 3b3f b121 3c3f
00000010: 4c15 3b3f 9563 943d 61c7 3c3f 315d ea37
00000020: 6def 0600 07fd b93c f6a6 3a3f 9931 393f
00000030: 2a7f 3b3f 7393 723d 1e0a bf3e dd02 3b3f
00000040: 38c9 723e 878f 3b3f 2942 3b3f 98e7 4b3e
00000050: c232 323d 31d0 3c3f 785a 0580 0d3a b53c
00000060: 404d 6f3c 9c55 0600 e603 b43c 07d8 0180
00000070: d89b 3f3f 5a39 3a3f 7c5c 723f d1b8 3a3f
00000080: 7a23 6b3f 7457 0200 b3cc 513f f253 3a3f
00000090: 63fc 0080 ddff b53c a3b5 983c 3af1 b43c
000000a0: 41f2 393f 026b 8f3c 2584 3c3f 4888 8e3f
000000b0: 4807 ac3c 3f45 403f 0bf7 3c3f 6940 3a3f
000000c0: 93e3 a33f a982 3a3f 94a6 7038 7b78 3a3f
000000d0: 8f6b 3c3f 5348 403f 4a9c 423f da77 8d3f
000000e0: e828 3b3f 48a5 853c 08ee b23c 3230 0500
000000f0: 4fa6 3c3f d872 a13f 154a 3d3f fa21 a63f
00000100: 33c4 383f f1a1 3b3f ea27 f03c 2abf 963d
00000110: d62b 3d3f ae81 b03c 0c35 5b3f 7af9 3c3f
00000120: 9e98 623e e06b 4e3f 50a4 223d 34ff 3c3f
00000130: 084b 3c3f 3d26 913c 2977 b43c 47e2 493f
00000140: f945 3b3f f441 933d f4bf 933d 28a6 2e3d
00000150: 1122 b23c 7749 3c3f 4560 3b3f 4398 b63c
00000160: d38f 823f cce6 453f 4936 3d3f f996 4c3e
00000170: aff0 443f ab51 0400 e83a 3b3f 119d 0200
00000180: 9634 843f 30f5 643f fdd7 3b3f 978a b53f
00000190: e73c 3dbe 90f2 50bf f2e3 19be 5d25 43be
000001a0: 0415 44be f990 50bf bea8 2dbe b788 97bd
000001b0: 1890 0482 c74e 60bf e1fb 60be c5a8 33be
000001c0: c42e 44be eb9c 5cbf 90b3 093f cbf8 3ebe
000001d0: ad11 4bbf 3606 6bbe 8eb4 37be d365 73bf
000001e0: d121 40bf 4300 39be dc6c 1700 6079 5dbf
000001f0: 9114 113d 6174 8480 5977 4dbf 719b 9182
00000200: 0c33 3ebe 3eff 48be 2aa5 323f 1d3f 39be
00000210: 99c3 45be f2cb ab81 cffc 29be 45f8 47be
00000220: df5c 0180 70dd 69bf 7a0a 34bf d210 53bf
00000230: e7b5 3fbe fed5 12bf ac5a 1cbe 0492 6fbf
00000240: 37b4 49bf 0d64 21be e856 29be 0eb2 40be
00000250: ce13 873f f1c0 5abe c949 edbc 1884 46be
00000260: 7d2c 4cbe 74ea 12be be35 58be 6e9c 41be
00000270: facb 46be 830c 08bf 4d29 59bf 4a63 2304
00000280: 8bc6 3ebe e1d2 083e 2462 56be 84e1 903d
00000290: 33aa 3fbe 39ff 53be f65e 61bf 8e47 49bf
000002a0: 7998 4cbe ab7a 66bf 7c90 a1be be1f 3abe
000002b0: 8052 c53e 45dd 82be a3ca 30bf bb43 1bbe
000002c0: d4f0 2abe 8a93 27bf 814c 53bf d517 6fbd
000002d0: bee8 18be cc73 3bbf 24d5 63bf ee03 1fbf
000002e0: 8edb 5bbf 8629 67be 1d1a 46be 0cfd 64bf
000002f0: a87d acbe a404 0dbe 1586 33be d844 21bf
00000300: 1810 56be 0307 d200 fe99 43be 3b74 a080
00000310: 314e c5be 55fe 0bbe 752f 3ebe a9ae 8c3f
0.72842336 0.022734711 0.7321356 0.7348891 0.7307937 0.07245556 0.7374173 2.793837e-05
6.36903e-40 0.02270366 0.7291101 0.72341305 0.7324091 0.05922265 0.37312406 0.73051244
0.23709571 0.7326588 0.7314783 0.19912565 0.043505438 0.73755175 -4.91632e-40 0.022122407
0.01460582 5.81724e-40 0.021974515 -1.69332e-40 0.74847174 0.7274376 0.9467237 0.7293826
0.9185101 2.15043e-40 0.8195297 0.7278434 -9.0539e-41 0.022216732 0.018641299 0.022087682
0.72635275 0.01750708 0.73639137 1.113534 0.020999566 0.7510566 0.7381446 0.7275453
1.2803825 0.7285562 5.7375597e-05 0.7284009 0.7360162 0.7511036 0.7601973 1.1052201
0.73109293 0.016314164 0.021842018 4.76467e-40 0.73691267 1.2613173 0.73941165 1.2979119
0.72174376 0.7329398 0.029315908 0.073606804 0.73895013 0.021546211 0.8562782 0.7381817
0.22128531 0.80633354 0.03970748 0.7382691 0.7355199 0.017718429 0.022029476 0.78860897
0.73153645 0.07190314 0.072143465 0.042638928 0.02174476 0.735496 0.7319377 0.0222894
1.0200142 0.77305293 0.7391096 0.19979466 0.76929754 3.96639e-40 0.7313676 2.40016e-40
1.0328548 0.89436626 0.73376447 1.4182919 -0.18480264 -0.8162012 -0.1502836 -0.19057222
-0.19148642 -0.8147121 -0.16958901 -0.07399123 -9.739181e-38 -0.87620205 -0.21971084 -0.17544849
-0.19158465 -0.8617694 0.53789616 -0.18649594 -0.79323846 -0.22951588 -0.1793997 -0.95077246
-0.750516 -0.18066506 2.151268e-39 -0.8651333 0.035420004 -1.2164034e-38 -0.80260235 -2.1395054e-37
-0.1857416 -0.19628617 0.6978327 -0.18090482 -0.19312896 -6.3108127e-38 -0.16600345 -0.19528301
-1.25151e-40 -0.9135351 -0.70328486 -0.8244754 -0.18721734 -0.57357776 -0.15268964 -0.9358218
-0.7879061 -0.15760823 -0.16537058 -0.18817922 1.0552919 -0.21362664 -0.028965848 -0.19386327
-0.19938846 -0.1434725 -0.21114251 -0.1890733 -0.19413748 -0.5314409 -0.84828645 1.920615e-36
-0.18630426 0.13361694 -0.20935875 0.07074264 -0.1871727 -0.20702828 -0.88035524 -0.7862481
-0.19980039 -0.90030926 -0.31555545 -0.18176171 0.38539505 -0.2555944 -0.690592 -0.15162556
-0.16693431 -0.654595 -0.8253861 -0.058372337 -0.14932534 -0.73223567 -0.889971 -0.6211537
-0.8588189 -0.22574434 -0.19345899 -0.8944862 -0.33689618 -0.13771302 -0.17531617 -0.6299567
-0.20904577 1.928797e-38 -0.19101712 -1.4735375e-38 -0.38536218 -0.13671239 -0.18572791 1.0990802

cinn.module_list.1.subnet.2.bias f4 [2]
00000000: e2ee 0e3f 60aa 333d
0.55833256 0.043863654

cinn.module_list.2.global_scale f4 [1, 3]
00000000: 45d4 aa40 c6f2 8a40 371d b240
5.338412 4.3421354 5.5660663

cinn.module_list.2.global_offset f4 [1, 3]
00000000: 1255 643f f4bc be3d 88d1 d4bb
0.89192307 0.09313384 -0.0064947046

cinn.module_list.2.w_perm f4 [3, 3]
00000000: 0000 803f 0000 0000 0000 0000 0000 0000
00000010: 0000 803f 0000 0000 0000 0000 0000 0000
00000020: 0000 803f
1.0 0.0 0.0 0.0 1.0 0.0 0.0 0.0
1.0

cinn.module_list.2.subnet.0.weight f4 [100, 36]
00000000: f29e f03e f4f6 a03d dd6a 70bc 68a2 16bc
00000010: 9849 853c 9913 51bc f25e 3cbb 323a 2abc
00000020: 7219 993a 5709 3d3c 59ec 543c a0f1 3bbc
00000030: c00c 093c 9d91 b53b 5437 beba 1e89 29b9
00000040: f173 e33b 032a 97bc 0254 c4bb 6feb eb3c
00000050: c459 26bc 8ecb ad3c 2ed3 8f3c 2ccb 60bc
00000060: b909 283c e341 413b d991 d63b 9073 da3b
00000070: 3450 173d 8167 953d 20ad bc3c 1df3 713d
00000080: 7dd3 483d d566 143e 9350 3e3e 3a9d 573e
00000090: e555 f43e 2066 c13d 6b07 43bc 9c56 f7bb
000000a0: 2bfe 4f3c 5e59 2abc ebcd 26bb 0431 0bbc
000000b0: da0d 333a 0796 123c 5e66 253c 346d 19bc
000000c0: f9d3 d13b a273 883b f3aa b8ba 39ca c6b9
000000d0: b9e6 ac3b 81b4 80bc ad6f cabb 5a7a ad3c
000000e0: c328 16bc 2b47 773c 1792 4a3c 6d3e 45bc
000000f0: e659 d33b 587e 8a3a 9991 6f3b 540a 203b
00000100: e3c1 de3c da50 543d bca1 6d3c e676 273d
00000110: 00d3 003d 1154 013e 5eaf 363e a187 3a3e
00000120: bb35 f53e 2454 cd3d 880d 58bc 06dd 08bc
00000130: 81b5 693c 9681 3cbc 9dd9 32bb c711 1abc
00000140: c12e 603a 6f1c 253c 2121 3a3c 7fc2 29bc
00000150: 0656 ed3b e997 9b3b 1223 c0ba ba4e a9b9
00000160: fc32 c43b d918 8cbc 1bdb c4bb 1738 c73c
00000170: 672e 21bc b02b 903c 7be6 6b3c c96a 5bbc
00000180: be1f 023c 6c50 de3a 4a34 993b 010d d53b
00000190: a0fe 083d 7834 833d 3a5a a03c 9b68 583d
000001a0: c197 1c3d bf81 0b3e 1e7e 3b3e d5fe 4b3e
000001b0: 7725 013f f122 b63d b6ee d4bc 8c06 7ebc
000001c0: 8aaf 083d 506a b6bc 663e 38bb 224a 91bc
000001d0: c316 a83b af41 c63c f994 de3c bb67 a2bc
000001e0: b508 993c 0e47 543c b63d bdb8 f228 223b
000001f0: d106 813c e025 05bd 39b7 07bc 89c3 963d
00000200: 0486 87bc 8bfd 6d3d c2b3 4c3d e765 c3bc
00000210: ab2a 133d 396d a23c 1a03 d73c 5128 863b
00000220: 350c 5a3d f91e 393e e5cd 093d f41e 0a3e
00000230: 6b46 e63d e446 293e 0ab6 603e 42ff ae3e
00000240: 4829 fe3e 865a d63d ecd8 61bc 094a 0ebc
00000250: 97da 763c 13be 44bc 57e6 36bb 1a75 20bc
00000260: 2d52 803a 1fae 2e3c 08d6 443c 5b12 31bc
00000270: 4afd fb3b 1dec a53b 3eb0 bfba e942 89b9
00000280: 25a4 d03b 5b9f 8fbc eb9d cdbb afb3 d53c
00000290: ae5e 23bc 5446 9b3c 2fb6 7f3c cce2 5bbc
000002a0: c456 113c 166e 0d3b 8405 b43b d196 da3b
000002b0: fce1 133d d094 8d3d 2aee b13c 5818 683d
000002c0: 66a7 293d 5527 043e 24f0 393e b7bc 543e
000002d0: 8706 ec3e 7546 7f3d 00d6 92bc 2e4f 35bc
000002e0: 7cf5 a93c 703a 7ebc f25f 4bbb 39b2 4dbc
000002f0: 0ecd 003b 0dae 723c 3d75 883c 0178 63bc
00000300: d4d0 323c 51ec f03b a66e adba d1ed 9d39
00000310: 9b6e 153c a214 bcbc 53ef e5bb f2de 203d
00000320: f9d3 4cbc c145 f43c a549 c83c d4d4 8ebc
00000330: f631 813c ff32 cc3b a9c4 313c 2a8b 953b
00000340: 9404 293d a8a0 cd3d 4aca c43c d6aa a23d
00000350: 09f9 823d 15e1 1a3e 3b8c 583e 9100 833e
00000360: 03a0 f13e f466 be3d 0ae4 31bc 5a7d e3bb
00000370: 1dab 393c c1c8 1bbc 023e 1ebb 3b79 ffbb
00000380: e97d 023a b965 023c 1a4b 133c 2c94 0cbc
00000390: c464 b93b 94b3 6e3b ad1a b6ba c833 f1b9
000003a0: c62d 983b 8d8f 68bc ef6d bcbb 572f 983c
000003b0: d719 0abc b4fe 563c ee1c 303c 0752 35bc
000003c0: 7a61 b13b a33d 183a 7c3c 403b 56f4 363b
000003d0: 2506 e63c a6a2 3a3d 4d9f 683c c62e 153d
000003e0: 68b1 e03c d863 013e 782c 2b3e 0973 293e
000003f0: d7d0 fa3e 7eed cc3d c1df 54bc 7490 06bc
0.46996266 0.078596026 -0.014673916 -0.009193994 0.016270444 -0.01276102 -0.0028743115 -0.010389851
0.0011680557 0.011537871 0.012995803 -0.011471182 0.008364856 0.00554104 -0.0014512339 -0.00016168176
0.0069413115 -0.01845265 -0.00599146 0.028798787 -0.010153238 0.021215227 0.017556753 -0.013720315
0.010256224 0.0029488734 0.006548148 0.006666608 0.036941722 0.072951324 0.023031771 0.05906974
0.049029816 0.14492352 0.18585424 0.21056071 0.47721782 0.09443307 -0.011903624 -0.0075481664
0.012694876 -0.010397283 -0.0025452327 -0.008495573 0.0006830372 0.008946902 0.010095207 -0.009364415
0.006403443 0.004164175 -0.0014089033 -0.0003791617 0.0052765277 -0.015711071 -0.0061778636 0.021176506
-0.009164992 0.015092651 0.012363932 -0.012038809 0.0064499257 0.0010566218 0.0036555289 0.0024420219
0.027192062 0.05183492 0.0145038925 0.040884875 0.031451225 0.12629725 0.17840335 0.18215801
0.47892556 0.10025814 -0.01318682 -0.008353477 0.014264465 -0.011505505 -0.0027290352 -0.0094036525
0.0008551889 0.01007758 0.011360438 -0.010361313 0.007242921 0.0047483337 -0.0014658889 -0.00032292848
0.005987523 -0.017101692 -0.0060075647 0.024318738 -0.009837723 0.017598957 0.014398213 -0.013392159
0.007942138 0.0016961223 0.004675423 0.0065017943 0.033445954 0.06406492 0.019574273 0.052834135
0.03823066 0.13623713 0.18309829 0.1992143 0.5044779 0.08893383 -0.025992732 -0.015504491
0.033370532 -0.02226749 -0.0028113364 -0.017735545 0.0051296665 0.024201242 0.027170645 -0.019824853
0.01868091 0.012956394 -9.023717e-05 0.0024743644 0.01575032 -0.032506824 -0.00828343 0.07361514
-0.016543396 0.058103126 0.049976118 -0.023852302 0.035929363 0.019827472 0.026246596 0.0040941616
0.053234298 0.18078221 0.033643622 0.1348837 0.112439 0.16530949 0.21944442 0.3417912
0.4964087 0.10466485 -0.013784628 -0.008684644 0.015066764 -0.012008208 -0.002790829 -0.009793544
0.0009790115 0.010661631 0.01201392 -0.010807599 0.0076901065 0.0050635473 -0.0014624668 -0.00026180528
0.006367224 -0.017532041 -0.006274929 0.026086656 -0.009971304 0.018954434 0.015607401 -0.013420772
0.008870784 0.002158051 0.0054938216 0.0066708107 0.036104187 0.06913149 0.02172001 0.05666384
0.04141941 0.12905629 0.18158013 0.20775114 0.4609873 0.062323052 -0.017924309 -0.011066241
0.020746939 -0.015516862 -0.003103253 -0.012554699 0.0019653472 0.014812005 0.016657466 -0.013883592
0.010914046 0.00735239 -0.0013231828 0.0003012256 0.009120609 -0.022959057 -0.007017055 0.039275117
-0.01250171 0.029818418 0.024449179 -0.017435469 0.015770894 0.006231665 0.01085011 0.004563709
0.04126413 0.100404084 0.02402224 0.079427406 0.06395156 0.15124924 0.21147244 0.2558637
0.47192392 0.092969805 -0.010857591 -0.0069424333 0.0113323005 -0.009508313 -0.0024145846 -0.007796434
0.00049778685 0.007958823 0.008990074 -0.008580249 0.005657764 0.0036422955 -0.0013893448 -0.00046005682
0.0046441285 -0.014194381 -0.00575041 0.01857726 -0.008429012 0.013122249 0.010749085 -0.01106692
0.0054132314 0.00058075244 0.0029332926 0.0027916632 0.028079102 0.04556527 0.0141981365 0.03642156
0.027428344 0.12635744 0.16716182 0.16547789 0.48987457 0.100062355 -0.0129928 -0.008213151

cinn.module_list.2.subnet.0.bias f4 [100]
00000000: 5b89 c03e 7809 d03e d78d c83e 7cae c23e
00000010: 6888 ca3e 5521 c53e 9e1a c73e c658 c03e
00000020: 62b5 0480 8a45 c83e f0d2 c63e 1e48 a63d
00000030: 5bd8 0680 7188 0500 4702 c53e 9db1 cd3e
00000040: c3a3 cc3e a44c 0600 8bad c73e 316f c83e
00000050: a147 c73e a51c 0180 460d c53e 6638 c43e
00000060: 570e cb3e 4b89 0500 d440 c73e f49c cc3e
00000070: 5edb cc3e c3da 0500 7a9c c73e d5fd 0580
00000080: c578 7f3e 4a13 ca3e 9f83 d03e 6c7c c83e
00000090: 5712 0280 31ed ca3e e55d c83e 41f1 c33e
000000a0: 0eef 443f ae7b c23e d06c 0600 3565 c33e
000000b0: bf57 053f fe21 d13e 731d c53e 6e39 cf3e
000000c0: ac8e c63e 31e1 c83e daa7 ca3e 22c4 ca3e
000000d0: 4589 c03e 48bc c73e 3ebe ca3e 7227 0680
000000e0: 75a6 0400 265d 0180 b10b 0000 852f c33e
000000f0: 75ed c83e 16c3 0380 f3c1 c93e 4931 b281
00000100: b321 ca3e 3f14 0200 f2ca 0280 809d 0480
00000110: c4ba cc3e 1005 c53e e5bb 033f 7462 0480
00000120: edbd be3e 323a c03e f239 cb3e ca46 bf3e
00000130: a413 c63e b782 c53e dce3 0500 25c5 c53e
00000140: 3688 c73e b7b8 0480 0327 0080 3438 0580
00000150: 0599 0380 a1b3 513f 7886 4f3f ab4c 0100
00000160: 06f1 c83e 8367 0380 6a5b 0280 3cb9 c83e
00000170: dd53 b13f 0f7b c93e c7d9 9d3f 4120 0300
00000180: d641 1400 6083 0080 925f c93e 63b7 cb3e
0.37604794 0.40632224 0.39170715 0.38023746 0.39557195 0.38501993 0.38887495 0.3756773
-4.3241e-40 0.39115554 0.38832808 0.08119224 -6.28627e-40 5.08123e-40 0.384783 0.4017457
0.3996869 5.78506e-40 0.3899959 0.39147332 0.38921836 -1.02111e-40 0.3848669 0.3832428
0.39659378 5.08429e-40 0.38916647 0.39963496 0.40011114 5.37654e-40 0.3898657 -5.50235e-40
0.24948414 0.3946784 0.4072542 0.39157426 -1.9025e-40 0.39634088 0.39134136 0.3827
0.7692727 0.37984985 5.90048e-40 0.38163152 0.52087015 0.40846246 0.3849903 0.40473503
0.38780725 0.39234307 0.39581186 0.39602762 0.37604728 0.39010835 0.39598268 -5.65163e-40
4.27056e-40 -1.25251e-40 4.194e-42 0.38122192 0.39243665 -3.4549e-40 0.39405784 -6.5457594e-38
0.39478835 1.90934e-40 -2.56474e-40 -4.23842e-40 0.3998624 0.38480425 0.5145858 -4.0266e-40
0.37254277 0.375444 0.39692646 0.37358695 0.3868686 0.3857629 5.40918e-40 0.38626972
0.38971108 -4.33605e-40 -1.3995e-41 -4.7934e-40 -3.304e-40 0.81914717 0.8106456 1.19339e-40
0.39246386 -3.1264e-40 -2.16464e-40 0.39203823 1.3853718 0.393517 1.2332085 2.87077e-40
1.860327e-39 -4.7128e-41 0.39330727 0.3978835

cinn.module_list.2.subnet.2.weight f4 [2, 100]
00000000: caa6 0b3f adcc 103f 652b 0c3f f02f 183f
00000010: 37a8 0e3f cad0 0b3f 6c04 0b3f 8a1a 0e3f
00000020: 438a 0000 72db 0b3f f451 0d3f 15ab a53d
00000030: 4d73 0100 a5f1 0300 6c3f 0c3f 1e05 0e3f
00000040: 9450 0d3f 407d 0300 9fb9 0a3f cb2f 0d3f
00000050: aecf 0c3f 48db 0380 689e 0b3f 5c6d 093f
00000060: e30c 0c3f fa1a 0500 193d 0d3f e8fa 0a3f
00000070: 4ac4 0c3f 9bba 0380 6fc0 0a3f 6737 0000
00000080: 789f c43e 07d6 0e3f c29a 0f3f f338 0d3f
00000090: 2bab 0080 086d 103f 5729 0d3f 35ce 0d3f
000000a0: a2fa 8a3f 2fc1 0e3f cbba 0000 002d 0d3f
000000b0: c48e 4b3f 8002 0e3f 53f9 0a3f 0a39 173f
000000c0: c19e 183f 6e3a 113f b3b5 0e3f 4c9b 0e3f
000000d0: 4146 0d3f 99f2 143f 0cc8 133f bd37 0100
000000e0: d4ad 0400 e565 0280 3145 0200 ad1d 0f3f
000000f0: a464 0c3f 3a80 0500 d4bf 0d3f 81b0 0200
00000100: 3cde 0a3f 60ce 0300 50ac 0200 c9cd 0280
00000110: 2bdd 153f f5af 0a3f ee48 3b3f e1e4 0580
00000120: 3825 0c3f cc80 0c3f 3609 0b3f 0426 103f
00000130: 90ee 153f 651b 0a3f 1e75 0680 2a4d 0c3f
00000140: e7dc 083f 8e09 0100 41d6 0100 ed2b 0380
00000150: 5bde 0180 9b86 993f 6ff3 943f ec19 0100
00000160: 14a2 0c3f a02d 0600 1b73 0280 5578 0b3f
00000170: 3ee4 db3f 25f0 0e3f 8fa8 c33f bea3 0300
00000180: f0ed 0680 cf27 0280 6550 0c3f 0094 093f
00000190: a517 e6bd 8f94 b1bd 9e21 c9bd b611 64be
000001a0: 4de3 d4bd 60b8 12be 7abc 9dbd 512a c6bd
000001b0: da2b 0380 7b4a 05be d183 03be 860c 513d
000001c0: 5d9b 0280 e274 0400 83a8 e1bd a78c 99bd
000001d0: ef7c 95bd 1103 0100 c3ea cebd 81b2 b7bd
000001e0: 841b cabd 1716 0680 e30a d0bd c340 10bd
000001f0: a788 c8bd f705 0000 ce80 e0bd 95c4 dcbd
00000200: 7dd2 babd 542a 0300 fb23 76bd eb3f 0380
00000210: 231b ddbe ae00 d3bd 8d10 c2bd e421 c6bd
00000220: 9f47 0380 2bf6 aebd 3566 d6bd 7528 edbd
00000230: 8334 ffbd 413f edbd 465b 0100 cfd9 ecbd
00000240: 2600 b5be 7bbd acbd ce6a 00be bb9f 04be
00000250: 8f43 3bbe cf0e 09be f017 b4bd 4086 0bbe
00000260: c483 e3bd 5924 1bbe 4136 22be 031a 0600
00000270: 4e91 0600 c2aa 0480 4550 0280 ce22 f4bd
00000280: 4d05 edbd 9dc7 0180 8e8a a8bd e1d5 e380
00000290: 7b53 cebd 0851 0000 350f 0400 6e3f 0480
000002a0: 3869 20be c0d7 b2bd 64c1 70bd 26c8 0200
000002b0: 6d2d f9bd 1e0d bdbd 7c34 c2bd ca6c 13be
000002c0: 3610 30be 91d1 a9bd 1d6a 0100 8c2d abbd
000002d0: e80b e9bd f041 0580 1833 0600 7790 0000
000002e0: 5ea1 0380 e471 bbbe ca0e 39be 5d0f 0580
000002f0: 32d3 9ebd b597 0080 846c 0280 c374 fbbd
00000300: ac8f b53f 77fc d7bd 66fa 8d3f bea2 0280
00000310: 9ca7 2700 1cd5 0100 14c1 bfbd f05c b0bd
0.54551375 0.5656231 0.54753715 0.59448147 0.55725425 0.5461546 0.5430362 0.55509245
4.9599e-41 0.5463172 0.55203176 0.08089272 1.33198e-40 3.62192e-40 0.54784274 0.5547656
0.5520108 3.20438e-40 0.54189485 0.5515105 0.55004394 -3.5417e-40 0.54538584 0.53682494
0.54707164 4.68855e-40 0.5517135 0.542891 0.54987013 -3.42448e-40 0.5419988 1.9875e-41
0.38402915 0.5579533 0.56095517 0.5516502 -6.1403e-41 0.5641637 0.55141205 0.5539277
1.0857737 0.55763525 6.7009e-41 0.5514679 0.7951472 0.55472565 0.5428669 0.5907141
0.5961724 0.5672978 0.55746 0.55705714 0.55185324 0.58182675 0.5772712 1.1183e-40
4.297e-40 -2.20224e-40 2.08492e-40 0.55904657 0.54841065 5.05177e-40 0.5537083 2.46989e-40
0.5424535 3.4954e-40 2.45485e-40 -2.57493e-40 0.585406 0.5417474 0.73158157 -5.41284e-40
0.5474429 0.5488403 0.5431093 0.5630801 0.5856714 0.5394805 -5.93027e-40 0.54805243
0.5346207 9.5263e-41 1.68695e-40 -2.91264e-40 -1.71602e-40 1.1994203 1.163679 1.01135e-40
0.5493481 5.6738e-40 -2.24963e-40 0.5448049 1.7179029 0.5583518 1.5285815 3.34246e-40
-6.36369e-40 -1.97952e-40 0.5481017 0.53741455 -0.112349786 -0.086709134 -0.09820865 -0.22272381
-0.10394917 -0.14328146 -0.07701965 -0.0967604 -2.91237e-40 -0.13016693 -0.12843253 0.051037334
-2.39405e-40 4.09272e-40 -0.11018469 -0.074975304 -0.0729922 9.2936e-41 -0.10103371 -0.08969594
-0.098685294 -5.58937e-40 -0.101583265 -0.03521801 -0.09791689 2.14e-42 -0.109620675 -0.107796825
-0.09122179 2.90691e-40 -0.060092907 -2.98436e-40 -0.43184766 -0.10302864 -0.09475813 -0.09674433
-3.01199e-40 -0.085430466 -0.10468713 -0.11579982 -0.12461188 -0.1158433 1.24578e-40 -0.11564981
-0.35351676 -0.08434578 -0.12540743 -0.12951557 -0.1828749 -0.13384555 -0.08793628 -0.13625431
-0.11109117 -0.15150584 -0.15841009 5.60344e-40 6.03138e-40 -4.28598e-40 -2.12466e-40 -0.11920701
-0.11573277 -1.63443e-40 -0.08229552 -2.0923383e-38 -0.100745164 2.9069e-41 3.72797e-40 -3.90096e-40
-0.15665138 -0.08732557 -0.05877818 2.55471e-40 -0.121668674 -0.092310175 -0.09482667 -0.14396968
-0.17193684 -0.08291925 1.29902e-40 -0.08358297 -0.11379224 -4.82831e-40 5.69342e-40 5.1824e-41
-3.33394e-40 -0.3661033 -0.18072048 -4.64689e-40 -0.07755126 -5.4422e-41 -2.22599e-40 -0.1227813
1.418447 -0.10546201 1.109204 -2.42052e-40 3.641711e-39 1.68285e-40 -0.093629986 -0.086114764

cinn.module_list.2.subnet.2.bias f4 [2]
00000000: e8b3 d83e afca ed3c
0.42324758 0.029027311

cinn.module_list.3.global_scale f4 [1, 3]
00000000: 3042 ab40 15d2 8a40 7325 b240
5.3518295 4.338145 5.5670714

cinn.module_list.3.global_offset f4 [1, 3]
00000000: 65f5 533f 129e 813d 6a11 a9be
0.8279632 0.06328978 -0.33021098

cinn.module_list.3.w_perm f4 [3, 3]
00000000: 0000 0000 0000 0000 0000 803f 0000 803f
00000010: 0000 0000 0000 0000 0000 0000 0000 803f
00000020: 0000 0000
0.0 0.0 1.0 1.0 0.0 0.0 0.0 1.0
0.0

cinn.module_list.3.subnet.0.weight f4 [100, 36]
00000000: 40e7 d13e b522 5d3d b77e 373b d03b 503b
00000010: 7dab b739 90e9 373b e8f6 cf3a 9c61 443b
00000020: 288d d43a 86e2 1e3a d5f9 1b3a d45d 3c3b
00000030: dc94 7f3a 401a 813a ff7f ce3a 0c1f d03a
00000040: 1d04 7f3a 6979 ce3b 1c87 ef3b e750 c53a
00000050: 759a de3b d12f 173b 6668 143b 39a5 d33b
00000060: 6d81 713b 9921 663b 2888 693b 5c1b 863c
00000070: 632e 9c3c f316 d33b 2758 8e3c fea8 1e3c
00000080: e00c 163c 0435 5b3d 95c8 783d 8625 063d
00000090: 6810 d63e 1349 593d d442 7838 4c3d 883a
000000a0: 6b1a 133b 303f 9839 01a5 353a f7cf 433a
000000b0: 7643 a63a 8e86 f03a 503e 043b bb5b 053a
000000c0: a519 e03a b1b9 af3a 032b 653a 1ef0 8a3a
000000d0: 7802 c73a e3de 0d3b f8c9 8b3b 4b74 8e3b
000000e0: 2de9 603b 0601 833b 0ce9 673b 0fea 353b
000000f0: f5a3 703b e661 2f3b 46b3 4d3b 171e 293c
00000100: 9145 7c3c 9220 243c a8c7 4c3c d372 323c
00000110: 07e2 173c 5228 653d 1d61 8e3d 8935 3a3d
00000120: c1e7 0680 9ea7 0100 cd02 0200 76e5 0200
00000130: a938 0500 d66e 0200 4598 0200 8bbe 0200
00000140: cc96 0200 f570 0300 0387 0300 f063 0200
00000150: 2fb6 0200 b178 0200 aa9d 0200 d070 0200
00000160: e680 0200 4105 0300 e3c0 0080 87da 0300
00000170: d9ff 0100 9bae 0200 b5eb 0300 90f6 0300
00000180: 6d42 0400 7b87 0600 ad33 0400 ea7f 0480
00000190: 98d0 0580 77d2 0600 1b5d 0580 90ac 0280
000001a0: e3f6 0280 50be 0080 2043 0680 f48b 0480
000001b0: bf07 da3e 93c3 423d 2d09 aa3b 234e a53b
000001c0: 5ef1 afba bcb4 a33b 6540 1b3b 036c a23b
000001d0: 6e99 fd3a e805 01ba 023c 30ba b8a4 a13b
000001e0: 9328 aa39 2247 2e3a 8974 0f3b 9167 063b
000001f0: 6915 ff39 9ef7 1f3c 56b6 213c ae90 61ba
00000200: 5f6e 1d3c 8f85 743a 48e8 a03a 1246 1c3c
00000210: cc14 763b c934 8b3b a7e4 813b 8821 b03c
00000220: 7d80 bb3c 2295 7e3b c65b b23c 5518 143c
00000230: d46e 183c 6d45 983d 1b96 af3d df4b 123d
00000240: c95d 0180 676a 0000 15c2 0680 4fd4 0680
00000250: d544 0480 35c6 0680 de89 0580 8ad9 0680
00000260: 6bb2 0580 4151 0480 7e86 0480 bbc1 0680
00000270: 0dee 0480 fea5 0480 d48d 0580 14a2 0580
00000280: 4eb7 0480 5b39 0380 120a 0380 e811 0580
00000290: 0e1b 0380 e5a9 0480 c1ca 0480 852b 0380
000002a0: 0de7 0380 d624 0480 9318 0480 8987 0000
000002b0: 6dd2 0000 d87b 0080 89b4 0000 0519 0000
000002c0: c712 0080 7051 0500 80da 0200 3d2c 0500
000002d0: a7a2 0300 e577 0500 f225 0500 4984 0300
000002e0: 2eec 0100 d28e 0400 13b7 0300 b9e5 0300
000002f0: 4389 0200 3851 0200 6812 0200 df18 0400
00000300: 5c67 0200 e010 0300 8425 0300 9430 0300
00000310: a7b4 0200 8c31 0380 ca83 0500 99da 0400
00000320: ce38 0100 ede9 0400 1a3d 0500 e3e4 0000
00000330: 9307 0500 12b0 0500 955a 0500 f497 0000
00000340: cf75 0080 8fad 0680 f103 0000 32af 0080
00000350: b84b 0080 5fa9 0300 62f6 0500 0ac2 0500
00000360: e287 ee3e 87e2 493d b6ae cf3b 5570 c23b
00000370: 1d70 0fbb 2b02 c63b 2f4d 333b 9307 c13b
00000380: 49ff 073b 922d 89ba 346a abba 30d2 c13b
00000390: dc02 e6b6 6c14 013a aa1a 223b 914d 143b
000003a0: 2941 7539 1fa5 3b3c 2074 363c 3510 03bb
000003b0: dbf0 333c 9c10 8f39 c84f 3e3a f4cf 343c
000003c0: f096 783b eabf 963b 6d3b 883b 0ef1 ce3c
000003d0: fc0c d43c eb3a 2c3b be03 cb3c dcd3 113c
000003e0: a082 1b3c 27b4 be3d e157 d13d 668a 1d3d
000003f0: 3f9b b83e 3230 413d 08bf d139 14a1 9d3a
0.40996742 0.053988177 0.0027999112 0.0031773932 0.0003503225 0.0028062798 0.001586643 0.0029965406
0.0016216384 0.00060609763 0.00059500086 0.002874245 0.000974966 0.0009849742 0.0015754699 0.0015878393
0.0009728091 0.0063010943 0.0073098075 0.0015054018 0.006793315 0.0023069272 0.0022645234 0.006458905
0.0036850825 0.003511524 0.0035634134 0.016370468 0.019065088 0.0064419447 0.017376019 0.009683846
0.009158343 0.053517357 0.060738165 0.03275063 0.41809392 0.053048205 5.9190046e-05 0.0010394244
0.0022446166 0.00029038778 0.00069291895 0.0007469649 0.00126849 0.0018350647 0.0020178743 0.0005087216
0.0017097486 0.0013406781 0.0008742066 0.0010600125 0.0015183231 0.0021647743 0.00426602 0.0043473593
0.003431867 0.0039979247 0.003538671 0.0027757918 0.003671882 0.0026761233 0.0031387373 0.010322115
0.015397445 0.010017531 0.012498774 0.010891634 0.009270198 0.055946656 0.06952117 0.04546121
-6.3415e-40 1.51965e-40 1.84676e-40 2.65986e-40 4.79503e-40 2.23431e-40 2.38295e-40 2.52025e-40
2.37767e-40 3.16028e-40 3.2394e-40 2.19522e-40 2.49026e-40 2.26967e-40 2.4023e-40 2.2414e-40
2.29911e-40 2.77391e-40 -6.9195e-41 3.539e-40 1.83616e-40 2.46308e-40 3.60062e-40 3.63956e-40
3.91171e-40 5.99614e-40 3.8588e-40 -4.13229e-40 -5.34007e-40 6.26514e-40 -4.92577e-40 -2.45575e-40
-2.72237e-40 -6.8271e-41 -5.75093e-40 -4.17548e-40 0.42584035 0.047549795 0.005189082 0.005044715
-0.0013423373 0.0049959105 0.0023689505 0.0049567237 0.0019348094 -0.00049218396 -0.0006722809 0.004932966
0.00032455157 0.0006648173 0.0021889529 0.0020508508 0.00048653342 0.009763626 0.009870132 -0.0008604628
0.009608834 0.0009327763 0.0012276256 0.00953819 0.0037549017 0.004248236 0.003964025 0.021500364
0.022888416 0.0038846214 0.021772277 0.009039004 0.009303767 0.07435117 0.08573552 0.035716888
-1.25479e-40 3.817e-41 -6.20636e-40 -6.27175e-40 -3.92034e-40 -6.22116e-40 -5.08635e-40 -6.29051e-40
-5.23182e-40 -3.9649e-40 -4.15589e-40 -6.2051e-40 -4.52739e-40 -4.26889e-40 -5.10056e-40 -5.1732e-40
-4.331e-40 -2.96082e-40 -2.79119e-40 -4.65601e-40 -2.85212e-40 -4.28289e-40 -4.40076e-40 -2.91118e-40
-3.58392e-40 -3.80556e-40 -3.76158e-40 4.8621e-41 7.5487e-41 -4.4427e-41 6.4764e-41 8.975e-42
-6.736e-42 4.88392e-40 2.62054e-40 4.75047e-40 3.33855e-40 5.02188e-40 4.7279e-40 3.22961e-40
1.76561e-40 4.18576e-40 3.41181e-40 3.57915e-40 2.32911e-40 2.12807e-40 1.90274e-40 3.76264e-40
2.2075e-40 2.8156e-40 2.88965e-40 2.92933e-40 2.48477e-40 -2.9328e-40 5.06454e-40 4.4576e-40
1.12213e-40 4.51259e-40 4.81097e-40 8.2109e-41 4.61895e-40 5.2234e-40 4.91672e-40 5.451e-41
-4.2262e-41 -6.13274e-40 1.414e-42 -6.2848e-41 -2.7163e-41 3.36265e-40 5.47563e-40 5.28786e-40
0.46588045 0.0492883 0.006337966 0.005933801 -0.0021886893 0.006042739 0.0027359237 0.0058907955
0.0020751527 -0.0010465852 -0.0013077916 0.005914949 -6.854867e-06 0.00049240026 0.0024735131 0.002262924
0.00023389295 0.011452942 0.011136085 -0.0019998674 0.010982717 0.0002728746 0.0007259813 0.011035908
0.0037931763 0.0046005147 0.0041574747 0.025261428 0.025885098 0.0026280235 0.024782058 0.008900609
0.009491593 0.09311705 0.1022184 0.038462065 0.36055943 0.047165103 0.00040005916 0.0012026154

cinn.module_list.3.subnet.0.bias f4 [100]
00000000: c97e 953e c975 9d3e 4882 0100 615f bc3e
00000010: 8aa7 0680 152a 0380 8568 be3e 8451 9f3e
00000020: c1b6 a03e cac5 0000 fb83 973e c449 a43e
00000030: 659e b03e 1d36 a43e 7963 0600 3315 953e
00000040: a633 973e eade 0500 23c7 943e 2235 973e
00000050: a5d4 c03e 85e5 b73e 31a1 913e 0ef7 953e
00000060: 59aa cc3e 7642 9d3e 53b7 0300 04e7 0480
00000070: cb8f 9c3e 06cb 903e d63c b43e 833b 953e
00000080: 97f9 923e 3a54 c83e b8a2 b63e 21da 953e
00000090: a085 0280 764e 0080 8721 953e 10ab 0280
000000a0: 54eb bc3e 0b32 ab3f f00c bb3e cdf0 933e
000000b0: 4b72 c73e 280c 0500 ec9a 913e e7f9 c33e
000000c0: a37b b13e b055 0400 246a bb3e 4b0d 0600
000000d0: 8892 233f 7143 943e 0546 c83e 0d1a c83e
000000e0: fd89 933e aff2 913e ca54 933e 1a60 983e
000000f0: 3271 be3e 1541 963e 8d30 983e b45d bd3e
00000100: 1435 d83e f91b 0380 b708 943e 56f2 0e3f
00000110: 7d5d 933e 2586 c73e e601 9f3e 96c9 d73e
00000120: fb42 973e b11a 9f3e bac1 bc3e 6632 b53e
00000130: d7ee 9b3e e216 8c3e 722e ed3e a57b 993e
00000140: 73ee b33e 5f9d 913e 7712 0200 4d0c 0600
00000150: e67c 973e b203 c53e 6a37 c33e 61ac 943e
00000160: ea04 973e 77b4 943e 43b5 bd3e d2a4 973e
00000170: e604 0580 161d a63e 3a91 923e f1b8 9c3e
00000180: 43c1 933e 7528 0480 cba3 b53e be13 c53e
0.29198292 0.30753925 1.38572e-40 0.36791518 -6.11115e-40 -2.90603e-40 0.37189117 0.3111688
0.3138943 7.0953e-41 0.2959288 0.3208753 0.34495845 0.32072535 5.86697e-40 0.29117736
0.29531592 5.39144e-40 0.2905818 0.29532725 0.37662235 0.35917297 0.28443292 0.2929005
0.39973715 0.30714768 3.41271e-40 -4.50215e-40 0.30578455 0.28279895 0.35202664 0.29146966
0.28706047 0.3912676 0.3567102 0.29267982 -2.31607e-40 -2.8146e-41 0.29127142 -2.45037e-40
0.3689829 1.3374647 0.36533308 0.28894654 0.38954386 4.63538e-40 0.2843851 0.38276598
0.3466464 3.98081e-40 0.36604416 5.55782e-40 0.63895464 0.28957704 0.3911592 0.39082375
0.28816214 0.28505465 0.28775626 0.2976082 0.37195736 0.2934653 0.2972454 0.36985552
0.42227995 -2.85541e-40 0.289129 0.55838525 0.28782263 0.38969532 0.31056136 0.42145985
0.2954329 0.3107505 0.36866552 0.35390013 0.30455658 0.27361208 0.46324497 0.29977146
0.3514286 0.28440377 1.90295e-40 5.55426e-40 0.29587477 0.38479382 0.38128215 0.29037765
0.29495937 0.29043934 0.37052354 0.29617935 -4.60935e-40 0.32444066 0.28626424 0.3060985
0.28858384 -3.81855e-40 0.35476527 0.38491625

cinn.module_list.3.subnet.2.weight f4 [2, 100]
00000000: d773 013f 31ca 043f 8d2c 0680 3c14 0a3f
00000010: 441d 0000 425d 0200 2596 123f 9dea f13e
00000020: 2f0e 023f dbee 0200 b598 f23e 3bb3 093f
00000030: 044c 103f b472 133f 86fb 0100 59d1 e53e
00000040: 2b4c f43e 9079 0280 a173 fb3e ab6c f73e
00000050: a7e6 143f 7774 133f 053e f13e c558 043f
00000060: db3e 1c3f 3000 073f a670 0400 f760 0580
00000070: e5f8 0c3f 730d f23e 2f4e 153f 79cb f13e
00000080: 000f f43e 794e 173f 5fe9 0c3f 1e24 f33e
00000090: 78ab 0080 8ca0 0680 2b5a f73e 1343 0400
000000a0: e25d 143f 96ca e13f 81c9 103f 73a2 003f
000000b0: ad85 163f bae6 0180 4591 f33e d5ae 163f
000000c0: ead2 0c3f b163 0480 d324 113f a4bf 0400
000000d0: 0369 903f b0c8 f03e fc12 193f 6694 193f
000000e0: df5b ed3e d9f6 ef3e e362 013f feba e63e
000000f0: 9c5f 153f d4df f53e b475 f03e 4de1 153f
00000100: edbd 363f e9ce 0600 5812 f43e 5f81 713f
00000110: 3554 f13e 1783 153f 78c2 043f 0e75 253f
00000120: e27a f03e 6990 053f bf2b 173f ede2 103f
00000130: cfd8 fe3e d90a f43e bf1d 263f ad09 f63e
00000140: 7100 133f 2799 ef3e a7e1 0500 d3d7 0500
00000150: 0dee f13e 03c0 133f 6a4e 133f 871d f63e
00000160: 820e f73e 424a f23e 1920 123f 2571 f33e
00000170: 16c1 0400 a586 053f 594f f23e 2325 013f
00000180: c639 ee3e 28ac 0400 55b0 143f d938 183f
00000190: 6ec9 5d3c 12cb 23bd f1ca 0080 03e3 833d
000001a0: 57e8 0600 e212 0580 fa0c ba3d 7d81 ebbc
000001b0: 5974 09bd f88e 0680 6854 a3bc c2f0 e83c
000001c0: 7abe 453d 8843 eebd 33ea 0680 aab2 12bd
000001d0: b2ed a5bc f01d 0500 1eb7 d1bc 3705 aabc
000001e0: a974 f93d 4d0a 9e3d c6f9 8bbc cdfd 28bd
000001f0: 05d5 103e 1a6f adbc 82bb 0300 0c53 0000
00000200: 5442 fbbc a558 63bc 8fc4 773d 6b89 9cbc
00000210: 78fe acbc 4462 1d3e aa08 613d d5bd 9ebc
00000220: 9c6a 0680 9d6d 0000 a10b aabc 7bbc 0000
00000230: 546c db3d 1247 9a3f 75de 9d3d 120d dcbc
00000240: bee0 ff3d f0c0 0580 13dd b9bc ba92 093e
00000250: 28c7 d2bd e713 0400 1a37 ae3d 976a 0280
00000260: 39bf aa3e d680 dbbc e907 243e 4cbe 1f3e
00000270: 6708 7bbc cd6f 83bc 45a0 b7bc 7c0b cfbc
00000280: 0574 d43d 235a 9ebc 77cd bcbc 1c41 f73d
00000290: 1eb7 89be 21f2 0000 59d7 a7bc 764f cfbe
000002a0: 614c 82bc bbcc 0a3e 299f 22bd 2212 573e
000002b0: 5454 a6bc 66a0 1cbd 14a9 f73d 59aa 813d
000002c0: 97eb d4bc f821 afbc 08d0 803e 977f bfbc
000002d0: ff16 893d 93e2 53bc b19a 0500 ec45 0400
000002e0: e8e4 bebc 5839 b93d 91ae a83d 211b f7bc
000002f0: 9092 d5bc 8e0b 95bc 66df 0b3e 2e19 acbc
00000300: c89e 0600 ab06 3bbd e027 95bc ff50 01bd
00000310: de00 89bc 180b 0580 a41d a63d d7c4 303e
0.5056738 0.5187102 -5.66995e-40 0.53937125 1.0499e-41 2.17126e-40 0.5726035 0.47249308
0.5080289 2.69356e-40 0.4738213 0.5378911 0.5636599 0.575969 1.82065e-40 0.44886282
0.47714362 -2.2728e-40 0.49111655 0.48325095 0.5816445 0.57599586 0.4711763 0.5169795
0.6103341 0.5273466 4.07753e-40 -4.93962e-40 0.5506728 0.47275886 0.58322424 0.4722555
0.47667694 0.59104115 0.55043596 0.47488493 -6.1511e-41 -6.08606e-40 0.4831098 3.91404e-40
0.57955754 1.7639949 0.5655747 0.5024788 0.58797723 -1.74605e-40 0.4757177 0.5886052
0.5500933 -4.03105e-40 0.56696814 4.3609e-40 1.1282047 0.47028112 0.5979459 0.59992063
0.46359155 0.46868017 0.50541514 0.4506454 0.58349013 0.4802233 0.469648 0.58546907
0.71383554 6.25238e-40 0.47670245 0.9433803 0.47134557 0.5840315 0.51859236 0.64631736
0.46968752 0.5217348 0.59051126 0.5659626 0.49774787 0.47664526 0.6488914 0.48054257
0.5742255 0.46796533 5.40126e-40 5.366e-40 0.4725193 0.5771486 0.57541525 0.48069403
0.48253256 0.4732228 0.5708023 0.4754726 4.36608e-40 0.52158576 0.47326162 0.5044729
0.46528453 4.291e-40 0.5808156 0.5946174 0.013536794 -0.039988585 -7.2802e-41 0.064397834
6.34361e-40 -4.65951e-40 0.09084506 -0.028748268 -0.033558223 -6.023e-40 -0.019937709 0.028435115
0.048277356 -0.11633974 -6.35028e-40 -0.03581492 -0.020254944 4.69917e-40 -0.025600012 -0.02075444
0.12180454 0.077168085 -0.017086875 -0.04125767 0.1414376 -0.021171141 3.42772e-40 2.9792e-41
-0.030671276 -0.013876115 0.060490187 -0.019108495 -0.021117434 0.15369517 0.054939903 -0.019377628
-5.89257e-40 3.9322e-41 -0.020757498 6.7614e-41 0.10714021 1.2052939 0.07708446 -0.026861701
0.12494038 -5.2839e-40 -0.022688424 0.13434878 -0.10291892 3.74482e-40 0.085066035 -2.21908e-40
0.33349016 -0.026794832 0.16018642 0.15599936 -0.0153218275 -0.016044522 -0.02241529 -0.02527403
0.103736915 -0.01933009 -0.023047192 0.120729655 -0.2689752 8.686e-41 -0.020488428 -0.4049031
-0.01590556 0.13554661 -0.03970257 0.21003011 -0.020303883 -0.038238905 0.12092796 0.06331319
-0.025991244 -0.021378502 0.25158715 -0.02337627 0.06693839 -0.0129324375 5.1467e-40 3.92425e-40
-0.02330251 0.090441406 0.08236421 -0.030164303 -0.026070863 -0.018193986 0.13659438 -0.0210081
6.07973e-40 -0.045660656 -0.01820749 -0.031571385 -0.016724046 -4.63157e-40 0.08111122 0.17262588

cinn.module_list.3.subnet.2.bias f4 [2]
00000000: 1e63 d43e 2154 4dbe
0.4148187 -0.20051624

cinn.module_list.4.global_scale f4 [1, 3]
00000000: 2fa7 b240 1756 ab40 f703 8b40
5.582908 5.354259 4.344234

cinn.module_list.4.global_offset f4 [1, 3]
00000000: c99d b63f 2bfc cf3d b290 873d
1.4266902 0.10155519 0.06619395

cinn.module_list.4.w_perm f4 [3, 3]
00000000: 0000 0000 0000 803f 0000 0000 0000 803f
00000010: 0000 0000 0000 0000 0000 0000 0000 0000
00000020: 0000 803f
0.0 1.0 0.0 1.0 0.0 0.0 0.0 0.0
1.0

cinn.module_list.4.subnet.0.weight f4 [100, 36]
00000000: ea0b 52be ea37 013f a55c 86bb 56f9 b03b
00000010: e4a7 9c3b 4184 1cbb ed82 d9b8 08dc 123b
00000020: 3f2e 803b e068 633b 66f3 8c3b 3dd0 9cb9
00000030: 7b0f 813b 602a fa3a 6156 853a e3fc 183b
00000040: f0cc 393b b77b 50bb b0b0 443c b80f f53b
00000050: d5a0 c43b 18cd ec3b 2af1 a13b d20c 0b3a
00000060: 68d0 013c 4e8c 0a3b b490 993b 2635 af3b
00000070: 1cdf fc3c 0be6 8f3c 74f9 803c 1c4d a43c
00000080: 8074 5e3c c9ce 4d3d eea1 b13d 6ffc 603d
00000090: 0b0a d7be 1bcc ba3e 9213 393e 308a d1bc
000000a0: 2417 a1bd 624f 133e cefd 863d 3a53 343d
000000b0: a39a 8bbc d0b2 10bd 7135 63bd 9b2e ba3d
000000c0: e1b4 01bd b827 41b9 79b7 1f3d 1214 743c
000000d0: af66 4fbc 52f0 5e3e 37af 163b ab4d babc
000000e0: 5234 8e3d 9081 05bc 346e b63c bc76 273e
000000f0: 9b7d a0bb 51b5 ae3d 7cec 1d3d 3b55 823e
00000100: a5a1 75ba 8b13 dbbb b577 173e 9940 4dbb
00000110: 9bcb a03d 1193 9d3e b30e 8e3d bfd1 ab3b
00000120: 599d d83d bca2 ca3e ebcc f7bd e2be 833d
00000130: dfff d73d fae8 b6bd 2490 c5bc 49b4 a53a
00000140: d391 683d feca 923d ee21 b23d e638 48bd
00000150: 4ce0 8d3d 07aa ee3c 1279 0dbb 03e9 c73c
00000160: 9f6c 413d d86f 12be e127 8b3d fb23 9d3d
00000170: 81ee abbc 30ff 763d c36d e13c 52b6 b8bd
00000180: b02f 513d 7314 07bd 1538 8b3b d157 12be
00000190: 2ae3 973d 2c0c 823d d630 50bd 954c 623d
000001a0: 6548 26bc ee72 07be 13a8 6d3d ac34 973d
000001b0: b99c 903e c4e0 45bd de8f babc 6045 94bc
000001c0: d69c 10bc 763d afbc 6407 96bc 9805 9cbc
000001d0: 93d6 74bc d27a 3dbc ebb9 32bc cbf5 a4bc
000001e0: ba40 54bc ea70 71bc 63de 8bbc 5bbf 82bc
000001f0: 26de 61bc 6d8e fdbb b469 87bb e002 d73b
00000200: c6ad a3bb 756b 943b 0c73 6c3b dc19 ccbb
00000210: de18 073b 3d23 14ba 5490 7a3a a05b ec3b
00000220: b19d cf3b ee2c bc3c e6a6 1a3c e6f0 923c
00000230: 61cb 9c3c e8a2 b6bb dce6 f1bb 3bf8 9f3c
00000240: 08b0 90be 00b7 113f 553e 3fbd 35f0 743c
00000250: 790b a33c 4016 0abd f903 4bbc ef69 3fbb
00000260: 6cc0 213c 9584 373c 65c1 823c fa42 c5bc
00000270: ddfd 853c 81d3 7639 2206 97bb 75c4 5c3b
00000280: 16b9 073c 09fb 93bd 6b63 1c3d 5949 ca3c
00000290: 1a59 c5bb dade a43c 767d bd3b 8ca6 3ebd
000002a0: aeb3 8c3c ae6a 15bc 117e f23b ed51 86bd
000002b0: 652e 713d f257 0f3d 4b1c 95bc dad7 1c3d
000002c0: c48a 0abc 1a3f 1dbd e873 9b3d cb8b 893d
000002d0: 284d 728e b42e 2391 0632 ca8e 3bad dd8e
000002e0: 2ac7 c98e 1786 ce8e 866e c58e ab41 d88e
000002f0: b574 d48e b794 c68e 9e03 cc8e aa35 d38e
00000300: 8664 cf8e ccf6 c48e 9021 ca8e ac22 cf8e
00000310: 4807 ca8e db0b 438f 7f38 518f 4b30 3f8f
00000320: f319 4c8f a4dc 428f 37d5 3d8f 4862 478f
00000330: 2b1c 488f 736b 3e8f 011b 438f f9ab bd8f
00000340: 8620 c78f 0246 b88f 9722 c28f dfd0 bd8f
00000350: 1008 b98f a7fe 3a90 8661 4090 9ce5 3590
00000360: df8e 03bf e31d 243f 3a1f 27be 217a 563d
00000370: 9c40 b43d d6d8 e2bd 4839 42bd 861a 38bc
00000380: 9541 473d a738 593d 53df 983d 06d4 9dbd
00000390: 5520 713d 4b3d 183c dd87 48bc 44db 0e3c
000003a0: f860 0d3d 7254 3ebe dcec 7a3d 29a0 3e3d
000003b0: f0fd 27bd 539d 663d cb72 de3a 7da8 08be
000003c0: 7997 5d3d 1ad3 90bd aa41 7dbc 52e8 38be
000003d0: 37e9 923d 787b 4c3d b0d7 a5bd 31a8 473d
000003e0: 455a 11bd 56be 3bbe 070d 4b3d 31c0 2b3d
000003f0: ba4c 76be bed7 393f 70e3 453e be1f 653c
-0.20512357 0.50475943 -0.0041003996 0.005400817 0.0047807563 -0.002388254 -0.00010371753 0.002240898
0.003911763 0.0034699962 0.0043014763 -0.00029909788 0.003938613 0.0019086115 0.0010172838 0.0023344092
0.0028350912 -0.003181202 0.012005016 0.0074786805 0.006000618 0.0072265975 0.004942079 0.00053043396
0.007923223 0.0021140757 0.0046864394 0.005346912 0.030868106 0.017565748 0.015743949 0.0200563
0.01357758 0.050246034 0.08673464 0.05492824 -0.4199985 0.36483845 0.18073872 -0.025578588
-0.07865742 0.14385751 0.06591378 0.044024684 -0.01704151 -0.03532678 -0.055470888 0.090909205
-0.03166664 -0.0001842071 0.038993333 0.014897363 -0.012658759 0.21771362 0.002299262 -0.022742113
0.06943573 -0.008148566 0.022269346 0.16353887 -0.004897786 0.08530677 0.038555607 0.2545565
-0.0009370095 -0.0066856793 0.14791758 -0.003131902 0.07851335 0.30776265 0.069363974 0.0052435095
0.10576887 0.3957728 -0.12099632 0.064328924 0.105468504 -0.089311555 -0.024116583 0.001264223
0.056779694 0.07167624 0.08697878 -0.048882388 0.06927547 0.02913381 -0.0021587056 0.0244031
0.04722273 -0.14300478 0.06794716 0.07672878 -0.020987751 0.06030196 0.027518159 -0.0901915
0.05107087 -0.032978486 0.004248629 -0.14291312 0.07416375 0.06349978 -0.050827824 0.055248816
-0.010149096 -0.13227436 0.058021616 0.07383093 0.2824457 -0.048310056 -0.02277368 -0.018099487
-0.008826455 -0.021391612 -0.018314071 -0.019045636 -0.014943737 -0.011564927 -0.010908584 -0.020136734
-0.012954885 -0.0147363935 -0.017073816 -0.015960386 -0.0137858745 -0.0077379257 -0.004132474 0.006561622
-0.0049950806 0.0045294114 0.0036079315 -0.0062286686 0.0020614187 -0.0005651003 0.000955825 0.007213071
0.006335937 0.022970643 0.009439206 0.017937135 0.019139947 -0.005573619 -0.007382257 0.019527545
-0.282593 0.5691986 -0.046690304 0.014949848 0.019902932 -0.033712626 -0.012391084 -0.0029207428
0.009872537 0.011201044 0.015961358 -0.024079788 0.016356403 0.0002353918 -0.0046088854 0.0033686433
0.008283874 -0.072256155 0.03818075 0.024693178 -0.0060225846 0.020125795 0.0057827784 -0.04654555
0.017175522 -0.009119673 0.007400282 -0.06558595 0.058882136 0.03499598 -0.018201968 0.03829179
-0.008455936 -0.038390256 0.07590467 0.067161165 -2.9865952e-30 -1.2872824e-28 -4.9845015e-30 -5.464752e-30
-4.9742114e-30 -5.0912045e-30 -4.867068e-30 -5.3311347e-30 -5.237442e-30 -4.8953976e-30 -5.0293366e-30 -5.2067193e-30
-5.112624e-30 -4.8555387e-30 -4.9829164e-30 -5.1062828e-30 -4.9803856e-30 -9.6165256e-30 -1.0315376e-29 -9.426328e-30
-1.0062974e-29 -9.607432e-30 -9.359483e-30 -9.830386e-30 -9.866186e-30 -9.388417e-30 -9.619443e-30 -1.870308e-29
-1.9635443e-29 -1.8170767e-29 -1.91432e-29 -1.8717293e-29 -1.8245514e-29 -3.687821e-29 -3.7940453e-29 -3.587284e-29
-0.5138988 0.64108104 -0.16320506 0.052362565 0.08801386 -0.110765144 -0.04741791 -0.011236792
0.04864653 0.053032544 0.07464471 -0.07706456 0.058868725 0.009291957 -0.012239424 0.008719269
0.034516305 -0.18586901 0.061261043 0.04653946 -0.041013658 0.05630238 0.0016971467 -0.13345523
0.054099534 -0.070715144 -0.01545755 -0.18057373 0.071733885 0.049922436 -0.0809778 0.048744384
-0.03548648 -0.18334326 0.04957297 0.041931335 -0.24052706 0.7259482 0.19325042 0.013984619
