ckpts_encoder_new_idea_3_no_hist_Smaller_Net/Encoder_epoch_499.pt (torch, 7447 bytes, 6 tensors)

0.weight f4 [20, 35]
000000 09 25 2c bb d1 49 2a bb cb b6 3d bb bf 44 29 bb
       -0.0026267192 -0.002598394 -0.0028948064 -0.002582833
000010 22 b0 46 bb a1 bc 28 bb c0 8b 38 bb 22 37 41 bb
       -0.0030317386 -0.0025747197 -0.002815947 -0.0029482325
000020 48 b5 3e bb 7e b6 27 bb 15 62 3a bb aa 3b 3e bb
       -0.0029099751 -0.0025590952 -0.002843981 -0.0029027262
000030 7f 57 3c bb 9e b8 38 bb 63 9b 3a bb 83 c0 56 bb
       -0.0028738675 -0.0028186212 -0.0028473965 -0.0032768555
000040 65 68 80 bb 59 0c 52 bb 4b 60 78 bb fb 08 82 bb
       -0.003918695 -0.0032050817 -0.0037899192 -0.0039683557
000050 a3 fc 8e bb bf 4f 6c bb 97 da 8e bb b5 ea 9e bb
       -0.0043636127 -0.0036058275 -0.004359554 -0.0048497566
000060 c3 d1 94 bb 4d 2c 83 bb 75 c5 a9 bb 31 c4 90 bb
       -0.004541607 -0.004003084 -0.0051810094 -0.004417919
000070 6c 4e 9d bb 24 1c d4 bb 83 aa f6 bb f7 e7 de bb
       -0.0048006084 -0.006473081 -0.007527651 -0.0068025547
000080 ed 05 df bb 28 6a 1c bc ad b8 9d bc 85 7f 3f 40
       -0.0068061263 -0.009546794 -0.0192531 2.9921582
000090 a8 c8 34 bf bc 4a a9 3f 4e c7 85 3f 0f 1d 84 3d
       -0.7061868 1.3225932 1.0451448 0.06450855
0000a0 cd 4b 92 3d 6d c4 06 bf 1c 70 05 be 6d d4 81 3f
       0.07143364 -0.5264347 -0.13031048 1.0142952
0000b0 3e f1 e7 3e f6 5d b0 3e b1 25 0a 3e d2 0d a7 3d
       0.4530124 0.34446687 0.1349094 0.08156933
0000c0 c1 fe cf bc be 60 86 3e a6 ba 73 40 f8 7e c3 bf
       -0.02539003 0.26245683 3.808267 -1.5273123
0000d0 46 57 80 bf 37 c2 b3 be 44 9a cb 3e 68 a6 a9 bd
       -1.0026634 -0.35109112 0.39766133 -0.082836926
0000e0 92 4b 3f 3f 6a 5f b6 be e1 52 35 3e b6 0c 72 3e
       0.74724686 -0.3561967 0.17707397 0.23637661
0000f0 bc 1d 78 40 16 04 6c c0 eb 38 3b bd 3c cb 67 bf
       3.8768148 -3.6877494 -0.045708578 -0.90544486
000100 ed 58 52 3f c5 01 b5 bd f0 c6 91 40 ef 7b f5 bf
       0.8216694 -0.08838228 4.5555344 -1.9178447
000110 65 51 35 3f 25 f7 41 bc 0a e7 d7 bd 8a c5 42 be
       0.70827323 -0.011838709 -0.10542114 -0.19020668
000120 24 b3 0b be 1b 7f fd bd 9f 28 43 be bc cb 2c be
       -0.13642555 -0.12377759 -0.19058464 -0.16874593
000130 53 fb 31 be 55 93 1f be 88 a9 07 be 6e 66 15 be
       -0.17381029 -0.15583546 -0.13248265 -0.14589855
000140 60 c6 16 be b5 25 36 be 9a 30 39 be ec 8e 34 be
       -0.14724112 -0.17787822 -0.18084946 -0.17632645
000150 52 46 25 be cd 4f 4d be 76 3c 8b be 21 b3 6d be
       -0.16140106 -0.20049973 -0.27194566 -0.23212864
000160 0a 30 7a be 61 29 74 be 4c 6c 92 be 54 08 5f be
       -0.24432388 -0.2384391 -0.2859825 -0.2178052
000170 5d 97 89 be 91 99 9e be 8a 67 93 be 9d 36 a5 be
       -0.26873294 -0.30976537 -0.28789932 -0.3226823
000180 0f f4 a1 be e4 0d 9f be 28 fb 9c be b7 84 aa be
       -0.31631514 -0.31065285 -0.30660367 -0.33304378
000190 5b 87 cf be 09 58 35 be 64 87 b3 bd 12 04 1d be
       -0.40532956 -0.17709364 -0.08766058 -0.15333584
0001a0 76 9f bf bc 96 d1 44 3f b1 89 0c 40 72 d6 8c bd
       -0.023391467 0.768823 2.195904 -0.0687684
0001b0 15 fc 55 3f 80 f0 2a 3f a1 8d b4 3f ac c6 b4 3f
       0.8358777 0.66773224 1.4105722 1.412313
0001c0 f4 b3 60 be 89 61 d2 3e 28 44 81 3f 3b ff 60 3f
       -0.21943647 0.41090038 1.0098925 0.8788945
0001d0 28 dd 2b 3e 6e f5 26 3f 36 73 5a 3f d9 52 ab 3e
       0.16783583 0.65218246 0.8533205 0.33461645
0001e0 e4 ef 80 bd 6a 93 00 40 5d 0f 03 be bc fc 49 3f
       -0.062957555 2.0089974 -0.1279883 0.7890127
0001f0 c3 d5 c3 3e 70 94 14 bf 5c fe 3d 3e f9 3b 80 3f
       0.38249025 -0.58039 0.18554062 1.0018302
000200 5c 4f 8b be 17 df 94 3d 7e 91 b6 bf 4a 9e c4 3f
       -0.27208984 0.072691135 -1.4263151 1.5360806
000210 22 93 b1 be 8a be de be 9c f4 93 3e 98 d6 a7 bf
       -0.34682566 -0.43504745 0.2889756 -1.3112364
000220 7b ce 22 c0 76 70 43 3f e5 91 38 bf 91 9e 31 bd
       -2.5438526 0.76343477 -0.7209762 -0.04336411
000230 7d fe b2 bf 34 de 60 3f d9 77 8c 3f 0b 6f 36 40
       -1.3983914 0.87839055 1.0974075 2.8505275
000240 3a ed 22 3f 5b 27 e1 3f 61 4e 06 3e 64 4d 84 be
       0.6364323 1.7590135 0.13115837 -0.25840294
000250 51 af b8 3f 22 8a 41 40 31 4c 61 3f b8 2d 8c 3e
       1.4428502 3.024056 0.88006884 0.2737863
000260 64 1e 3e 3f b1 95 8c 3d 31 c9 52 3d d1 85 65 bf
       0.7426512 0.06864489 0.051461402 -0.8965731
000270 80 d3 3c be c6 65 47 3f 2c bf 20 40 a6 8a ab 3e
       -0.18440056 0.7788967 2.5116682 0.33504218
000280 74 5c 87 bf 9f 89 7b 40 6a 0e 93 bf 2a 7f 23 3e
       -1.057509 3.9302747 -1.1488774 0.15966478
000290 86 60 26 bf 66 76 19 bf 31 69 38 3f 5a ee 27 be
       -0.64991033 -0.59946287 0.7203551 -0.16399518
0002a0 72 0c 9d 40 27 d6 04 3c 56 af ff 3e c0 9c 1f 40
       4.907769 0.0081076985 0.49938458 2.4939423
0002b0 52 98 af 40 38 89 93 3f e0 6a 06 bd f2 83 35 bd
       5.487344 1.1526251 -0.032816768 -0.044315286
0002c0 e3 79 11 bd 78 9c 4d bd dc 72 29 bd 69 6c 04 bd
       -0.03551663 -0.05019805 -0.041369304 -0.03232995
0002d0 65 35 17 bd 7e 03 06 bd b4 05 16 bd 37 c3 25 bd
       -0.036916155 -0.032718174 -0.036626533 -0.040469375
0002e0 56 c0 1e bd 63 37 0e bd c7 f5 f9 bc 4c 5c 01 bd
       -0.038757645 -0.03472079 -0.030512704 -0.03158216
0002f0 ea dc 02 bd 40 ca 04 bd 51 6b a3 bd 9e 4d af bd
       -0.03194896 -0.032419443 -0.07979453 -0.08559726
000300 3a fd ea bd bb f4 ab bd da b5 c7 bd 6d 51 b9 bd
       -0.114740804 -0.08396288 -0.09751482 -0.09048734
000310 bd f7 a8 bd 90 5c b5 bd 00 41 a6 bd fb 3b ac bd
       -0.08250377 -0.088555455 -0.081178665 -0.08409878
000320 fd fd 13 be 71 aa 33 be 2c dc 53 be b9 b0 26 be
       -0.14452358 -0.17545487 -0.20689458 -0.16278352
000330 09 24 4b be af 07 44 be da f5 5d be 92 72 74 be
       -0.19837965 -0.19143556 -0.21675816 -0.2387183
000340 c0 76 83 be ad ef 19 be 11 b9 e9 ba 73 f9 fc ba
       -0.25676537 -0.15032835 -0.0017831643 -0.0019300416
000350 bc 55 cb ba 4a 57 02 bb f0 1d f9 ba a2 82 00 bb
       -0.0015513222 -0.0019888454 -0.0019006114 -0.0019609113
000360 c7 39 ed ba 04 76 e0 ba 92 03 dc ba dd 74 03 bb
       -0.0018098884 -0.0017125015 -0.0016785732 -0.002005867
000370 09 2d e5 ba 94 0a eb ba 26 0c f5 ba 9e 50 ef ba
       -0.0017484735 -0.001793223 -0.0018695637 -0.0018258279
000380 71 e2 e6 ba 4c c3 e5 ba 9e 3b ec ba 31 b9 90 ba
       -0.0017615092 -0.0017529516 -0.0018023138 -0.001104152
000390 71 46 07 bb 82 c1 ac ba 97 35 d4 ba e1 6b 0c bb
       -0.0020641352 -0.0013180228 -0.0016190287 -0.0021426606
0003a0 80 1d c3 ba e0 ec 08 bb 11 b0 ed ba 01 91 24 3a
       -0.0014886111 -0.0020893142 -0.0018134137 0.0006277711
0003b0 de 15 17 3a 21 71 42 3a 2e 9d 8f b8 fd 6e 5a 3a
       0.00057634513 0.000741737 -6.848048e-05 0.00083325786
0003c0 0d 5e 56 ba 51 03 98 bc 1d c3 a0 bc 76 1c c0 bc
       -0.0008177467 -0.018556269 -0.019624287 -0.023451071
0003d0 12 8e cc bc 43 d5 61 b9 19 ac 31 b9 72 18 11 b9
       -0.024970088 -0.00021537118 -0.00016944147 -0.00013837384
0003e0 a4 7e 51 b9 fb 3b 39 b9 1b 61 36 b9 5c fe 29 b9
       -0.0001997897 -0.0001766532 -0.00017393047 -0.00016211852
0003f0 cb 45 15 b9 30 9e 1b b9 8c fd 41 b9 37 e9 22 b9
       -0.00014235747 -0.00014840881 -0.00018500368 -0.00015536403

0.bias f4 [20]
000000 75 b8 9d bc 2b e7 35 bc e3 9e bf bc 05 05 20 bd
       -0.019252995 -0.011102478 -0.023391193 -0.039067287
000010 4a e6 e0 3c 98 ef 19 be 03 8e cc bc 29 66 d9 b9
       0.02745356 -0.15032804 -0.02497006 -0.0004146558
000020 47 c0 92 b7 52 a5 54 be 0a cb b4 bd b5 20 9e 3d
       -1.7494092e-05 -0.2076619 -0.08827789 0.07721082
000030 30 88 03 3c 03 5e 04 bf f0 c9 7b bd a3 a0 95 bc
       0.008028075 -0.5170595 -0.06147188 -0.018265074
000040 17 f8 82 ba 65 38 61 bd 74 11 59 bd f9 7f 0c ba
       -0.000999215 -0.054985423 -0.05299516 -0.00053596456

2.weight f4 [20, 20]
000000 e9 a5 27 83 80 a5 87 87 0b 48 07 82 38 56 52 85
       -4.9267345e-37 -2.0409815e-34 -9.938909e-38 -9.8899884e-36
000010 de 2a f5 87 85 98 4b 03 f6 55 3e 83 8b c5 18 03
       -3.6888698e-34 5.983142e-37 -5.593466e-37 4.4895554e-37
000020 5b 4f 80 82 81 a6 3e 02 65 c3 55 83 ab 1b 09 87
       -1.8853457e-37 1.400678e-37 -6.2819376e-37 -1.0314865e-34
000030 1d 56 ff 86 50 26 80 86 a5 95 f1 04 f0 50 9d 84
       -9.604687e-35 -4.8204544e-35 5.6796255e-36 -3.6984852e-36
000040 1d 3f 1f 03 fc 66 5b 04 db cf 4f 85 1c 3b 4a 02
       4.679835e-37 2.5790614e-36 -9.77127e-36 1.485758e-37
000050 65 91 a9 bc e0 09 05 bf b3 d2 64 3e a5 4f f8 3e
       -0.020699212 -0.51968193 0.22346 0.48498264
000060 43 a1 39 3f 9e 6a e2 bd ac 43 86 3b 60 dc d3 b7
       0.7251169 -0.11055492 0.0040974226 -2.525578e-05
000070 85 81 aa 37 3b 06 73 be c8 17 04 3c 67 e2 11 40
       2.0325891e-05 -0.23732845 0.0080623105 2.2794435
000080 b6 0c 0e 40 16 f8 17 be c7 36 e8 3f fc e6 ae bb
       2.2195258 -0.14840731 1.8141717 -0.005337594
000090 6e b1 89 39 d5 5c bc bd 42 f9 14 bd 28 dc aa 39
       0.00026262872 -0.09197394 -0.036370523 0.00032588956
0000a0 16 93 cd 07 c9 0b ef 8b 7f b9 59 8a 51 80 ba 8c
       3.093142e-34 -9.2077184e-32 -1.0483058e-32 -2.8735065e-31
0000b0 4a 71 84 8d 17 c5 e6 0a 15 34 d2 86 55 15 3b 07
       -8.162401e-31 2.2222331e-32 -7.906975e-35 1.4074585e-34
0000c0 9a b6 6f 86 25 91 2e 8a ad d7 ec 89 9b e6 54 8d
       -4.5085058e-35 -8.405094e-33 -5.7017754e-33 -6.5605125e-31
0000d0 0f 8a 11 8d 9a 6c 61 8c ca 8e 69 0b 3e 82 de 0a
       -4.4847757e-31 -1.7366051e-31 4.498159e-32 2.1426814e-32
0000e0 c7 13 13 09 17 54 50 0a b2 09 f4 08 5b 42 3f 08
       1.770378e-33 1.0030651e-32 1.4687495e-33 5.755497e-34
0000f0 a5 59 f8 3b 4c cd 5e 40 03 50 7e 3d df d8 25 be
       0.007579046 3.4812803 0.062088024 -0.16196011
000100 fc c4 cb 3f b4 0c 17 3e ac ac e0 3b 7c 34 88 39
       1.591949 0.1475094 0.0068565216 0.00025979045
000110 c5 89 dc 36 57 c0 2a 3e 97 2a 4e bd eb 09 cb 3f
       6.5725494e-06 0.16674934 -0.050333586 1.5862402
000120 49 67 09 bc 5a 05 58 3f 86 38 1e c0 a2 d1 21 bd
       -0.0083864415 0.84383166 -2.4722 -0.039506562
000130 45 62 36 3b 38 dd d3 3c 7f 42 18 bd 1a 5d 84 39
       0.002782957 0.025862321 -0.03717279 0.00025246368
000140 a1 1a 7c b6 5e 6e 83 bc 1b ec b4 38 95 f5 b2 3d
       -3.7566426e-06 -0.016043838 8.627047e-05 0.08738247
000150 7f 21 bd bc 4f 5a 96 39 49 43 97 b6 7f 38 a4 b3
       -0.023087261 0.00028677515 -4.5079837e-06 -7.647122e-08
000160 38 7d 1c b2 3a 63 2e b8 b7 0e 3b b7 59 31 a7 3a
       -9.1088665e-09 -4.1577245e-05 -1.1149495e-05 0.0012755796
000170 cd 15 87 bc 22 65 92 bd 72 44 64 bc 27 7b e6 3b
       -0.016489888 -0.07148196 -0.013932334 0.007033724
000180 32 02 40 33 7d 02 1b ba 5a 18 8e 3a 1b c4 f5 b3
       4.470548e-08 -0.00059131515 0.0010840998 -1.1444373e-07
000190 6d 21 a7 09 e0 a5 45 8e 23 4f b2 8b e8 27 49 8e
       4.023522e-33 -2.436199e-30 -6.868218e-32 -2.4794377e-30
0001a0 40 5c c5 8e 46 cb 2c 0a b5 01 38 8a 13 d7 8f 07
       -4.8653083e-30 8.31973e-33 -8.859599e-33 2.1642658e-34
0001b0 51 0e 0e 8a c1 5a 0d 8c 3c 0b aa 88 e0 8d ef 8d
       -6.839744e-33 -1.0889555e-31 -1.0234144e-33 -1.4763667e-30
0001c0 66 ab a0 8e 3c ec b7 0c 62 1e 94 0e 9d df b5 8b
       -3.9608096e-30 2.8337793e-31 3.6514074e-30 -7.005512e-32
0001d0 51 52 d6 09 89 35 bc 0a e4 d0 f3 08 33 1f 31 09
       5.1596036e-33 1.8123879e-32 1.46741405e-33 2.132027e-33
0001e0 e8 d2 20 3b 84 3a 7e c0 cd 13 96 3d 4d de cb 3f
       0.0024539772 -3.9723215 0.073279954 1.5927216
0001f0 7a 04 43 40 4a 5b fd 3d bc 5a a9 bc 26 0c f0 ba
       3.0471482 0.12370928 -0.020673148 -0.0018314167
000200 d0 21 fd b7 22 af 4a 3d 2d ef 05 bc f0 d4 72 3e
       -3.0175695e-05 0.049483426 -0.0081747 0.23714042
000210 e0 a1 8b be 75 bc a1 be 00 dd 4d 3f bb 95 5f bb
       -0.27271938 -0.31589094 0.80415344 -0.0034116346
000220 c8 31 93 bb ce a0 17 3e f0 a0 4c 3d a2 8e 13 ba
       -0.0044920184 0.14807436 0.04995817 -0.0005628859
000230 57 23 39 83 22 e3 07 87 05 6c 57 83 71 68 22 84
       -5.440718e-37 -1.022302e-34 -6.330682e-37 -1.9090966e-36
000240 21 63 db 86 a0 4e 3b 81 10 f9 ef 82 63 d6 4a 83
       -8.25243e-35 -3.4402886e-38 -3.5260849e-37 -5.960857e-37
000250 86 08 9b 82 1b 43 10 84 ce 0d 56 83 fb 03 9c 86
       -2.2780095e-37 -1.6957932e-36 -6.2904795e-37 -5.8686527e-35
000260 7e 4a 8f 86 1b f3 dc 85 26 cb a3 05 dd 86 dc 84
       -5.390008e-35 -2.0778003e-35 1.5403071e-35 -5.1845604e-36
000270 08 62 c9 02 0a f6 83 82 a0 88 0e 84 5d bf 57 82
       2.9590563e-37 -1.938994e-37 -1.6754755e-36 -1.5850624e-37
000280 78 0a 9d 08 77 a4 3d 8d 74 14 cd 8b 11 fa df 8d
       9.451555e-34 -5.843809e-31 -7.89939e-32 -1.3803637e-30
000290 e1 09 b3 8e 5a 70 d4 88 71 b6 0e 09 21 05 19 08
       -4.413642e-30 -1.27857e-33 1.7178412e-33 4.604779e-34
0002a0 59 d0 39 88 a7 cd 5e 8b 0a b1 2a 8b 9a a0 bc 8e
       -5.5916324e-34 -4.291036e-32 -3.2873998e-32 -4.650023e-30
0002b0 f8 7a 8c 8e 99 fd a3 8d 41 6d 61 0c d6 98 63 0c
       -3.463108e-30 -1.0106702e-30 1.7366247e-31 1.7533436e-31
0002c0 1d 2a da 09 69 2f 96 0b b3 a1 23 0a 61 58 62 08
       5.2521194e-33 5.7849233e-32 7.878577e-33 6.811329e-34
0002d0 cd 23 1a 3a 04 bf a3 3e c7 d6 a3 3c 40 cb 2f bd
       0.00058799685 0.3198167 0.019999875 -0.042918444
0002e0 bb 3e 97 bf b8 47 cf 3c be b0 79 39 4c 57 0e 38
       -1.1816019 0.025302753 0.00023812332 3.393674e-05
0002f0 df 13 dd 36 6f 6c d1 3b 69 00 68 bb c6 8e a7 3f
       6.5886265e-06 0.0063911 -0.0035400635 1.3090446
000300 47 56 fe 3d 9a 99 0a bb c7 92 28 be b6 6f a5 ba
       0.124188 -0.0021148683 -0.16462241 -0.0012621793
000310 cb e9 27 39 c6 82 31 b9 32 2f 34 3e 6e 8d 86 38
       0.00016013456 -0.00016928752 0.17596129 6.415961e-05
000320 e0 1b 1f 03 3c 97 e8 86 99 49 b7 02 f9 63 45 04
       4.67579e-37 -8.749092e-35 2.6931676e-37 2.3203144e-36
000330 2b 25 5d 87 84 a9 df 82 f9 1d d3 02 e9 8d 4e 02
       -1.6637115e-34 -3.2864202e-37 3.1020867e-37 1.5175216e-37
000340 f1 c2 15 03 08 96 0b 82 a5 f4 21 82 b8 ad fc 84
       4.4010946e-37 -1.0255164e-37 -1.1898621e-37 -5.940445e-36
000350 02 f1 01 86 46 2b 0f 86 64 3a 1c 05 72 42 27 03
       -2.4439268e-35 -2.6927103e-35 7.3458094e-36 4.9153165e-37
000360 98 bc bc 00 29 92 09 82 e3 b7 0f 04 33 08 44 03
       1.7332728e-38 -1.0107116e-37 1.6894006e-36 5.7608635e-37
000370 46 9c 3f 1d 1b f4 b0 a1 a7 c0 d4 9f 6c f5 18 a1
       2.535943e-21 -1.1990838e-18 -9.010421e-20 -5.1824416e-19
000380 08 be c5 a2 fc 51 1f 9d 12 cc e1 1c 71 40 17 1b
       -5.359816e-18 -2.108586e-21 1.4942002e-21 1.251125e-22
000390 f4 af af 17 4a 86 57 1e a8 94 2b 1d 14 72 8d a2
       1.1353527e-24 1.14097756e-20 2.2708515e-21 -3.833891e-18
0003a0 16 d5 38 a2 d1 d2 de a0 d1 9a 96 21 04 ea 8b a0
       -2.5049457e-18 -3.774777e-19 1.0205375e-18 -2.3702374e-19
0003b0 0a 55 e6 1b 45 6a 1c 1d 90 a4 d0 9e 05 f9 5a 1a
       3.8105263e-22 2.0701368e-21 -2.2090918e-20 4.52825e-23
0003c0 88 fb c6 3b e3 e6 52 bf 24 7e 72 be eb 43 59 3d
       0.0060724653 -0.82383555 -0.23680931 0.053043287
0003d0 03 b5 29 40 4d d6 37 be 05 db 22 3b f9 30 a0 ba
       2.651673 -0.17952843 0.0024849784 -0.0012221626
0003e0 2d 8a 66 37 c2 81 4e bd c7 cf dd 3c d9 f5 0f be
       1.374124e-05 -0.050416715 0.027076615 -0.14058627
0003f0 b5 fa a0 bd 19 84 5e be 7c 2f 2e 3f ed d6 35 bd
       -0.078603186 -0.21730079 0.68041205 -0.044394422

2.bias f4 [20]
000000 20 ef 26 87 f9 f4 7f be d5 1c 0e 8c ff fa a7 3e
       -1.2558725e-34 -0.24995793 -1.0947958e-31 0.32808682
000010 83 06 12 bc b5 ee 81 8d f4 73 b4 ba 83 b7 f1 86
       -0.008912685 -8.007705e-31 -0.0013767467 -9.092377e-35
000020 aa 00 3d 8d dc 98 20 bf 14 09 93 86 58 af 3f a1
       -5.824092e-31 -0.62733245 -5.5308593e-35 -6.4945383e-19
000030 1e a4 3d bf b1 93 46 3e e3 4f 3b 87 fc 61 02 88
       -0.7407855 0.19392277 -1.4091793e-34 -3.923563e-34
000040 11 a3 d0 86 e9 34 cc 86 c2 97 8d 88 1a 9f 89 bd
       -7.848051e-35 -7.6814016e-35 -8.521807e-34 -0.06719799

4.weight f4 [3, 20]
000000 79 b2 35 06 6d 07 03 c0 ac 6f 41 0c ec e3 89 3e
       3.4173437e-35 -2.0473282 1.4901784e-31 0.26931703
000010 70 c6 f0 bc fb c6 19 0d ca ef 53 3f a9 c0 e8 04
       -0.029391497 4.738628e-31 0.82787764 5.471987e-36
000020 e5 3c a3 0d 96 47 28 bf 68 c3 2f 06 c8 58 b5 21
       1.006031e-30 -0.6573423 3.3057404e-35 1.2288537e-18
000030 b2 1f 8f 3e f1 40 d1 3e 01 d1 1a 07 d2 b8 c1 07
       0.2795387 0.4086986 1.1647093e-34 2.914804e-34
000040 1d a6 31 06 a7 4f 10 05 78 b9 52 08 30 9c 71 bf
       3.341204e-35 6.785477e-36 6.3412594e-34 -0.9437895
000050 f5 53 c9 83 4c e4 22 3e 7d 80 81 89 a5 08 f0 3f
       -1.1832994e-36 0.15907401 -3.117645e-33 1.8752638
000060 28 cc 75 3c ef 5c ab 8c 95 19 b6 3f 6d 30 79 86
       0.015002288 -2.6402654e-31 1.4226557 -4.6867273e-35
000070 7b c4 3c 8b cf 6d 12 3d c2 57 17 86 e1 27 82 20
       -3.6355298e-32 0.035749253 -2.8464418e-35 2.2049246e-19
000080 e0 f9 b1 bf 06 e4 4c 3f 52 7f e5 03 8a 9a 70 06
       -1.3904381 0.80035436 1.3488642e-36 4.525252e-35
000090 3c 08 82 05 e0 26 55 86 8a 26 b9 05 c0 01 42 3f
       1.2228166e-35 -4.0089408e-35 1.7411473e-35 0.7578392
0000a0 c3 dd a4 06 e4 e6 63 3f d4 11 b8 0b 85 24 99 bf
       6.2015793e-35 0.89024186 7.0901047e-32 -1.196427
0000b0 fd 92 40 bd d4 f5 f7 0c e7 e9 69 3f 6d 6d 38 06
       -0.04701518 3.8204328e-31 0.9137253 3.4686947e-35
0000c0 2b c2 ec 0c 9a 86 b8 3e ac 40 f7 04 fc a1 3e 21
       3.6478418e-31 0.36040193 5.8128813e-36 6.458889e-19
0000d0 e6 18 54 3e 71 fe 45 3f f3 d3 e6 06 d3 38 62 07
       0.20712623 0.7734137 8.6827816e-35 1.701905e-34
0000e0 cd 99 84 06 f6 4b 9f 05 04 d1 3a 08 c2 76 4b be
       4.987887e-35 1.4980192e-35 5.6218036e-34 -0.19869521

4.bias f4 [3]
000000 96 77 25 be a1 c7 34 bf 41 cb 6b 3e
       -0.161589 -0.7061711 0.23026754
