ckpts_encoder_new_idea_3_no_hist_Smaller_Net/Encoder_epoch_480.pt (torch, 7447 bytes, 6 tensors)

0.weight f4 [20, 35]
00000000: f2a0 a33c 4209 a6bc f92c 8fbd b699 7f3c
00000010: 084d 2a3c 5dbf 17bc 1cde 1abd 1552 e5bc
00000020: dd8b 61bd 173b 823b c0f3 39bd e40b 6838
00000030: f3e6 aebb 2bfb b7bc 8dfc bebc 01fc 0c3d
00000040: dafc 25bd f1be 73bd d85a 2dbc ee99 5bbd
00000050: d170 aabc 4d01 933c cba8 6dbd d4d2 c63a
00000060: 8ce1 d8bc 0f31 7d3d 1294 9fbd 807b c2bd
00000070: f40a 823c 81d1 bdbd fe16 95bc 872d d1bb
00000080: 01e8 d5bb 2370 4bbd f885 a2bd 6886 3d40
00000090: 06e0 39bf e724 a63f e627 833f 95a7 e93c
000000a0: 8f02 573d be7d 0cbf ad22 1cbe d68a 7b3f
000000b0: 622e df3e 1d72 a23e 9ab8 e23d b7c8 5c3d
000000c0: defc 4ebd ce43 713e 9f71 7340 43ae c4bf
000000d0: 5a96 7dbf df94 b5be b5fa ca3e c77e a4bd
000000e0: 1ef6 3e3f 2a2c babe 22b4 2b3e 8829 683e
000000f0: 5d7e 7940 a4c4 6ac0 4417 2fbd 992d 63bf
00000100: b014 533f 1d13 94bd ed64 9340 ec27 f4bf
00000110: 7430 2d3f c941 1abc d40b 0ebc 96fe 62bb
00000120: f9c1 24ba d305 03bc 264c e7bb c24e acbb
00000130: 65a6 32bb 3a07 57bb 09a9 11bb 4707 dfbb
00000140: b2bc 2abb f6ba a5bb c1fa b9bb cb3d 8bbb
00000150: 6374 7ebb 5813 6cbc bcb4 dfbb b3ed 8eba
00000160: 7a86 29bc f188 5ebb dc30 a3bb 83a2 57bc
00000170: 59a6 7abb f48e 1bbc 83bc debb 6b07 a2bc
00000180: 75d3 91bc e494 3ebb 6878 a1bc 35da 13bc
00000190: 6f50 20bc 42f4 9fbc 1cc2 0dbd 78da b43c
000001a0: 032b 56bd 189f 443f cae6 0d40 0e7c 1fbd
000001b0: 9289 573f ebf3 2a3f 16d7 b63f cedd b73f
000001c0: cd66 48be a506 e23e 54dd 823f 493d 683f
000001d0: 1805 383e 5c45 293f 2ee0 5e3f dff1 b53e
000001e0: daf6 85bd 80da 0140 2046 d6bd 06db 4d3f
000001f0: d757 d03e b44f 10bf f044 453e 0c0b 833f
00000200: fda6 89be 6273 b13d f1c3 b6bf f604 c73f
00000210: 6fdc aabe 4dfd d8be 6e40 9c3e 99f8 a6bf
00000220: cea4 22c0 3737 463f 765d 39bf e9f3 6cbd
00000230: 2f9c b2bf e7c5 623f 3ca8 913f 367b 3640
00000240: 0ea0 1f3f b529 e33f 7874 0a3e 6308 7ebe
00000250: 1043 ba3f 7828 4240 1d92 623f fd2f 873e
00000260: 4a2e 3d3f 92e3 973d 5d12 573d a1f8 64bf
00000270: cfff 1cbe 1510 523f e1d0 2240 2f17 b23e
00000280: 4de5 84bf cd37 7c40 95d3 90bf d8c6 243e
00000290: 2c87 21bf 22ff 1abf c435 473f d507 d3bd
000002a0: 3804 9e40 dca9 183d 9ea5 033f 7ad7 1e40
000002b0: 3fbd b040 fdb7 933f a2ea 6bbd 87c5 963c
000002c0: ce20 793c 0f4e 48bc 09a9 af3c 411a d93b
000002d0: f5ff 913c 75f1 d13b 4d38 d9bb 3777 a2bb
000002e0: 79b0 a73c 40e3 723a 0c72 9a37 ff40 f53b
000002f0: 51a8 e03b 487f 3439 5ccf d23c 792b 983c
00000300: 22bc acbc 3dac c93c d9cf 16bc 4080 0bbc
00000310: 207b e73c 64df 143b f805 a33b 76e6 933b
00000320: a5a0 84b9 2b54 76bb b0cf 10bd c30e 793b
00000330: f3f1 9cbc b362 82bc b724 1ebe 3aa6 0cbe
00000340: 3723 a7bd 2b1e fdbd b603 383b b630 9c3b
00000350: cbd6 943c 0da8 f2ba fdb8 84bb ee82 983a
00000360: 0a83 433b 5b01 923b 6350 043c 359e ccba
00000370: 17c0 7a3b efc2 dbba a6ba 20bb c9e9 4b39
00000380: b661 8c3a 9db7 f9ba b9c4 d53a b1cb ed3a
00000390: bb06 b2bb d80a b1bb 0ba6 37bc 28b5 09bc
000003a0: 6fb1 8fbb 9806 86bc fcfb 30bc bf59 96bc
000003b0: 7c4a 90bc d58f 4dbd ba98 e7bc 1d22 2ebd
000003c0: b0ec 75bd 1dd2 ffbc 4654 1ebd 10c4 c5bd
000003d0: 3f9b f2bc b591 b1ba 1c68 f5ba bf52 9eba
000003e0: 2e9c d5ba 5cae 94ba 5217 f7ba 63b9 d4ba
000003f0: 5727 97ba 768a c8ba 5bd4 ecba 7fed d3ba
0.019974206 -0.020268086 -0.06991 0.015600612 0.010394342 -0.009261933 -0.037809476 -0.027993241
-0.055065025 0.003974329 -0.045398474 5.5324184e-05 -0.00533759 -0.022458633 -0.023313785 0.034420017
-0.04052434 -0.059508268 -0.010580741 -0.053613596 -0.020805748 0.017944956 -0.0580223 0.0015169033
-0.026474737 0.061814364 -0.07791914 -0.09496212 0.015874363 -0.09268475 -0.01819944 -0.006383601
-0.006527901 -0.04966749 -0.07935709 2.9613285 -0.7260746 1.2980012 1.0246551 0.028522292
0.052492674 -0.5487937 -0.15247603 0.9825872 0.43590075 0.31727687 0.11070366 0.053902354
-0.05053412 0.23561022 3.80381 -1.536568 -0.99057543 -0.35465142 0.396444 -0.08031993
0.74594295 -0.3636182 0.16767934 0.22672093 3.8983376 -3.668252 -0.042746797 -0.8874145
0.8245344 -0.07230208 4.60607 -1.9074683 0.6765206 -0.0094150985 -0.008669812 -0.0034636608
-0.00062850077 -0.007996994 -0.007058638 -0.005258412 -0.0027259823 -0.0032810704 -0.0022225997 -0.0068062874
-0.0026052413 -0.005057688 -0.005675644 -0.0042493097 -0.0038826696 -0.014408909 -0.006826965 -0.001090458
-0.010347003 -0.0033956135 -0.0049801897 -0.013161304 -0.0038246124 -0.009494532 -0.0067973747 -0.019778928
-0.017801026 -0.0029080445 -0.019710734 -0.009024193 -0.009784802 -0.01952565 -0.034608945 0.02207683
-0.052287113 0.7680526 2.2172112 -0.038936667 0.8419429 0.6677844 1.4284389 1.4364564
-0.19570465 0.44145694 1.0223794 0.90718514 0.17970693 0.6612146 0.8706082 0.35536095
-0.06541224 2.0289612 -0.10462594 0.8041233 0.40692016 -0.5637162 0.19264579 1.0237746
-0.26885214 0.08664586 -1.4278547 1.5548389 -0.33371302 -0.42380753 0.30517906 -1.3044616
-2.5413089 0.77428 -0.72408235 -0.0578498 -1.3953913 0.88583225 1.1379466 2.8512702
0.623536 1.7747103 0.13520992 -0.24807887 1.4551716 3.03372 0.885042 0.264038
0.73898757 0.074164525 0.052507747 -0.8944188 -0.15331958 0.8205579 2.543999 0.34783313
-1.0382477 3.9409058 -1.131457 0.16091478 -0.6309688 -0.6054555 0.77816415 -0.10304228
4.938015 0.037271366 0.51424587 2.4819016 5.5231013 1.1540524 -0.05759681 0.018404735
0.015205575 -0.012225642 0.021442907 0.006625444 0.017822245 0.0064069577 -0.006629026 -0.004958059
0.02046989 0.000926543 1.8411338e-05 0.007484555 0.0068560024 0.00017213554 0.025733642 0.018575417
-0.021085802 0.024618262 -0.009204828 -0.008514464 0.028256953 0.002271616 0.0049750768 0.004513557
-0.00025296691 -0.003758679 -0.035354316 0.0038003183 -0.01915834 -0.015916204 -0.15443693 -0.13735285
-0.081610136 -0.1235927 0.0028078384 0.004766549 0.018168828 -0.0018513218 -0.0040503726 0.00116357
0.0029832744 0.004455728 0.008075806 -0.0015611114 0.0038261467 -0.0016766469 -0.0024525314 0.0001944668
0.0010710272 -0.0019051913 0.0016309238 0.001814237 -0.0054329312 -0.005402904 -0.011209021 -0.008405007
-0.0043851654 -0.016360566 -0.010802265 -0.018353341 -0.017613642 -0.050185997 -0.028271068 -0.042513
-0.060040176 -0.03122812 -0.03865459 -0.096565366 -0.029615043 -0.0013547452 -0.0018723044 -0.0012079104
-0.0016297156 -0.0011343467 -0.0018851554 -0.0016229566 -0.001153211 -0.0015300054 -0.0018068658 -0.0016168802

0.bias f4 [20]
00000000: c485 a2bd e602 0ebc 322b 56bd b7e6 59bd
00000010: 9e38 523b fd1d fdbd 5a9b f2bc fcc0 c3bc
00000020: 6d31 05be 36f7 9bbd a4e0 ceb8 63de 3c3d
00000030: 95a1 0bbb be42 08bf 8f16 0dbd 3d9c a83c
00000040: 4e5a 3abb 2696 9cb9 5bef 2fbd e939 07bc
-0.0793567 -0.008667683 -0.052287288 -0.053198542 0.0032077204 -0.123592354 -0.029615093 -0.023895733
-0.13007136 -0.07615511 -9.864688e-05 0.046110522 -0.0021306027 -0.5322684 -0.03444534 0.020582313
-0.0028435173 -0.00029866508 -0.042952877 -0.008253553

2.weight f4 [20, 20]
00000000: a182 0284 27d4 e786 6a69 1583 f82e 5104
00000010: 81bb 3a87 d701 b102 cc49 ba01 8dc3 2383
00000020: e047 fa02 46f4 3a83 e292 4b03 b71a 2906
00000030: 664a 6d84 72b6 0186 b2bb 8d05 4d95 4203
00000040: 16ff 4a83 9eb8 eb82 bb89 2f83 c075 cd82
00000050: cbe5 673c 7787 05bf e677 57bc 1e5e 043f
00000060: 8761 2e3f 472a 5dbd 54d5 743c a204 713c
00000070: 8af4 1a3e 95c4 573b 1805 6539 1b03 0f40
00000080: c0d4 0c40 38e0 2abe b673 ec3f 776a 573d
00000090: 03ea 83bb bde9 8f3b 2a75 a6bd 5df9 2cbb
000000a0: 54a8 3c92 f17c 8494 2d73 f692 bc60 ee93
000000b0: 699e 1195 2322 3892 424b 1292 eae1 9c12
000000c0: 8335 a311 cb6c ea12 55ee 660f 431c fc94
000000d0: 8ebd 8794 dbd8 2694 52bf 7614 06b4 0691
000000e0: 0882 5210 bbba 548f b0dc 4092 7a92 960f
000000f0: 50d2 773d 9815 6040 b46d 3abc de69 3bbe
00000100: 9719 d33f ac8d 6e3e bee9 bd39 af91 31bd
00000110: 1022 1d3c b6d1 d0bc a53d 293a 0570 cf3f
00000120: 1892 553c af5d 553f a011 20c0 dfcc e63c
00000130: 6881 19bc c509 d13a 5e7a 663e ff55 9abc
00000140: dcbe 1e01 0753 ad87 97dd 9e02 74ac a586
00000150: 0a69 a388 7863 f882 bd3e 1a84 95d4 c502
00000160: d3d0 db02 4f66 c302 5e5e c001 d623 4788
00000170: f14b 1488 97af e985 4c32 9d86 dff4 2286
00000180: ef5d 2503 2702 5903 75f6 c402 a04b 5503
00000190: e67d 6397 23a6 d798 28d8 ec14 b9e4 a798
000001a0: 61de d399 fc92 3697 3e46 cd95 dc3f 2615
000001b0: 5429 4b16 f587 8514 ddb0 f712 4e82 5b99
000001c0: cef9 3799 0d5f c698 97a9 ca17 bbba 0c96
000001d0: ed11 8614 d430 7014 4487 6315 4db8 d813
000001e0: d19d ccbb c1a4 7fc0 1cc7 f53c 4f6b cc3f
000001f0: 8728 4340 251e da3d 8b1e 23bd e664 013d
00000200: 67ca e4bc 08ae 5cbc f9e5 d3b9 8c40 8e3e
00000210: fcf3 a2be e7c7 a0be 2708 4e3f 64b4 88bc
00000220: 2b7c d13c 2418 f2ba 8c78 b53c ae65 19bc
00000230: 5fbe 909c 8692 d21c 6e63 6b18 72d2 081e
00000240: 93b7 a99d b6c4 d619 abdf 1019 d397 8218
00000250: 631c c719 eb72 e118 86f1 8195 c3ce b49d
00000260: 52d9 091d 50f1 5a1d f029 b71c 69d7 c49d
00000270: 0100 ae17 bd6e 1e18 91c3 2219 bdef 9f94
00000280: 07f3 778b ca30 438d 0c64 9305 012c 0c8d
00000290: 9dd9 b88d c7bf 9b8a efc3 3e0a 2ee9 0987
000002a0: 92cb 100a adb1 dc08 7a10 1107 bbc3 db8c
000002b0: 1634 9b8c c368 138c 1693 c60c f247 c289
000002c0: 915d fd07 f3ea 6409 f303 1589 bbd0 0209
000002d0: 6744 aa3c 400b 943e 7efe 0a3c 2bf2 3fbd
000002e0: fc1c 98bf 81a1 e7bc b1f8 8a3c f95b 92ba
000002f0: ff1d 0bbe e896 36bb c7f9 26b4 8185 a53f
00000300: 3efb ee3d ca9d 50bd 5f4b 8cbe ba8d 9d3d
00000310: bb8b 84b7 0cf0 ebb8 ade9 95ba 5b3d 1fba
00000320: 8ffc c684 444d 9b87 69f9 1f82 a349 1686
00000330: ce11 7388 517f d604 f472 4b02 75be c582
00000340: 8557 1e84 0022 3f81 9dc7 d902 a2fb f687
00000350: b254 b987 172b c786 78b1 c986 5725 bd85
00000360: 9223 2d83 ea80 3c83 b384 db82 7877 1980
00000370: 94dd 188f 245e a290 7edf 2f0c 5069 3f90
00000380: 9e07 3091 e260 d48e ce9f 5b90 6d27 af0b
00000390: 748b d40d c2e3 950b 6220 0d0a ba43 0091
000003a0: ae01 e790 cc0b 3b90 169f 848f 4bf9 348d
000003b0: 8841 1f0c b1c8 260a c8c7 9f0c 0e2d 258b
000003c0: b6c2 0a3d 6bf9 4fbf 46ef bfbd d841 413d
000003d0: fedd 2740 f2c6 07be b02b 7b3c 55eb d1ba
000003e0: 0ad1 34bd 8819 ed3c 52a5 083a 3876 ffbd
000003f0: 0afa 35be d0a2 51be 1123 2e3f 75b6 0a3d
-1.5341408e-36 -8.720427e-35 -4.3908174e-37 2.4589399e-36 -1.4048187e-34 2.6008869e-37 6.84315e-38 -4.8125876e-37
3.6775453e-37 -5.49409e-37 5.982495e-37 3.1804994e-35 -2.7893378e-36 -2.4396243e-35 1.3328525e-35 5.7182865e-37
-5.965529e-37 -3.4636112e-37 -5.1585985e-37 -3.0189628e-37 0.014153908 -0.5215983 -0.013151145 0.5170611
0.68117565 -0.053995397 0.0149434395 0.014710577 0.15132347 0.0032923569 0.0002184104 2.2345645
2.2004852 -0.16687095 1.8472812 0.052591767 -0.004025699 0.0043918774 -0.08127816 -0.002639375
-5.952982e-28 -1.3377875e-26 -1.5553176e-27 -6.0175034e-27 -2.940748e-26 -5.810224e-28 -4.616224e-28 9.900676e-28
2.5749845e-28 1.4794296e-27 1.13857766e-29 -2.5456645e-26 -1.3706283e-26 -8.4236255e-27 1.2457557e-26 -1.062621e-28
4.151537e-29 -1.048837e-29 -6.0856536e-28 1.4847563e-29 0.060503304 3.501318 -0.011378694 -0.18302104
1.6492184 0.23296231 0.0003622304 -0.043351825 0.009590641 -0.025490623 0.0006456024 1.6206061
0.01303532 0.83346075 -2.5010757 0.028173862 -0.009369232 0.0015948346 0.22507617 -0.018839834
2.9156952e-38 -2.6078946e-34 2.33432e-37 -6.23195e-35 -9.8349e-34 -3.6497417e-37 -1.8131421e-36 2.9068564e-37
3.2299017e-37 2.8711397e-37 7.066507e-38 -5.992651e-34 -4.46264e-34 -2.1975716e-35 -5.913074e-35 -3.0648716e-35
4.8596972e-37 6.377304e-37 2.894107e-37 6.2681887e-37 -7.350656e-25 -5.5743953e-24 2.3915169e-26 -4.339944e-24
-2.1906707e-23 -5.899289e-25 -8.2909663e-26 3.357381e-26 1.641125e-25 1.3483194e-26 1.5631492e-27 -1.13483495e-23
-9.511326e-24 -5.1277777e-24 1.3096755e-24 -1.1368032e-25 1.3537613e-26 1.2126533e-26 4.594899e-26 5.47078e-27
-0.006244399 -3.9944308 0.03000217 1.5970248 3.0493486 0.10650281 -0.03982405 0.031590365
-0.027928544 -0.013469227 -0.000404164 0.2778362 -0.3182677 -0.31402513 0.8048119 -0.01668758
0.025571903 -0.0018470329 0.022152208 -0.009362621 -9.57833e-22 1.393451e-21 3.0423237e-24 7.243299e-21
-4.492374e-21 2.2206532e-23 7.489795e-24 3.3757516e-24 2.0587583e-23 5.8277174e-24 -5.248374e-26 -4.785939e-21
1.824415e-21 2.8976815e-21 1.2120765e-21 -5.2103497e-21 1.1244487e-24 2.047693e-24 8.414698e-24 -1.6149457e-26
-4.7753303e-32 -6.014774e-31 1.3860565e-35 -4.31938e-31 -1.1392264e-30 -1.4998096e-32 9.185018e-33 -1.037526e-34
6.971635e-33 1.328254e-33 1.091343e-34 -3.3860094e-31 -2.391288e-31 -1.1355994e-31 3.0595254e-31 -4.677146e-33
3.8122202e-34 2.7554974e-33 -1.793708e-33 1.5746325e-33 0.02078457 0.28914833 0.008483527 -0.04686181
-1.1883845 -0.028275253 0.016964288 -0.0011166326 -0.13585661 -0.0027860943 -1.5550823e-07 1.2931367
0.116690144 -0.05093173 -0.27401254 0.07693048 -1.5800693e-05 -0.000112503854 -0.0011437439 -0.00060745113
-4.6781515e-36 -2.336722e-34 -1.1753052e-37 -2.8265964e-35 -7.314608e-34 5.042808e-36 1.4947075e-37 -2.9055865e-37
-1.8612998e-36 -3.5105553e-38 3.1999857e-37 -3.7161863e-34 -2.7885486e-34 -7.4918795e-35 -7.5868564e-35 -1.7787191e-35
-5.0880963e-37 -5.539622e-37 -3.2255323e-37 -2.338745e-39 -7.536853e-30 -6.404278e-29 1.3548764e-31 -3.7749238e-29
-1.3886299e-28 -5.235533e-30 -4.3313244e-29 6.746687e-32 1.3099081e-30 5.7735404e-32 6.7949936e-33 -1.011829e-28
-9.111602e-29 -3.6888335e-29 -1.3077483e-29 -5.576686e-31 1.2268635e-31 8.030355e-33 2.4618068e-31 -3.181174e-32
0.033877097 -0.81239957 -0.0937181 0.047181934 2.6229243 -0.13259485 0.01533024 -0.0016015569
-0.044144668 0.028942838 0.0005212623 -0.1247372 -0.17771164 -0.20472264 0.6802226 0.03386541

2.bias f4 [20]
00000000: aeed 8386 6d6e 82be 220c 5293 95a3 9c3e
00000010: 2923 7c87 6135 e897 a0cd 37bc 5810 6f9d
00000020: 9fc7 098c 521a 18bf b097 9d86 0d9f 698f
00000030: 4376 39bf e2e1 373e e0b1 cb86 f6ec 9a91
00000040: 6e0c f086 b0aa 7886 8ed7 7891 a4d7 dcbd
-4.962596e-35 -0.25474873 -2.6511708e-27 0.30593553 -1.8968706e-34 -1.5006123e-24 -0.011218458 -3.1639836e-21
-1.0614167e-31 -0.5941516 -5.927972e-35 -1.1518419e-29 -0.7244608 0.17957261 -7.6621477e-35 -2.4442954e-28
-9.029623e-35 -4.6769017e-35 -1.9630173e-28 -0.10783318

4.weight f4 [3, 20]
00000000: 6120 ab06 a099 01c0 277e 8813 0d28 6a3e
00000010: f0a8 2007 5df8 1f18 e591 353f c5c4 741d
00000020: ac2b c90a aa16 25bf 22a7 cd06 2bd6 4a0f
00000030: 7e92 db3e 7ed5 bc3e 986c 5306 6604 0c91
00000040: 830d 9206 871c b106 25eb ba11 d69b 80bf
00000050: d974 9985 627b 063e c651 3792 5a72 f83f
00000060: 977e 6b83 9e56 9e16 d47c c63f 4315 049c
00000070: b3e6 c889 aa4f 1abd 7992 7a06 b6c8 c10d
00000080: 80e7 a9bf ac2b 3a3f af54 0505 3a8a e390
00000090: bda7 d485 d27e ad85 252f 838f 28d7 473f
000000a0: 9ea1 4006 8ff6 593f 4c3d 8e13 9677 9ebf
000000b0: 2f5b f606 8369 da17 f347 6d3f 4f34 a01d
000000c0: 4894 9e8a 835d ca3e 9f70 4206 52d7 350f
000000d0: 6b96 2d3e fdee 453f 3cc6 1407 6a07 2a11
000000e0: a30f 0307 54b5 3f06 bed6 8811 95d6 23be
6.437063e-35 -2.0250015 3.4455622e-27 0.2286684 1.2086708e-34 2.067566e-24 0.7092574 3.2394859e-21
1.9372023e-32 -0.6448771 7.735801e-35 1.0000616e-29 0.42885202 0.36881632 3.976447e-35 -1.1045408e-28
5.493895e-35 6.662192e-35 2.9490545e-28 -1.0047557 -1.4430974e-35 0.13133004 -5.784541e-28 1.9409897
-6.920561e-37 2.558094e-25 1.5506845 -4.3702616e-22 -4.8365197e-33 -0.03767363 4.7127385e-35 1.1942863e-30
-1.3273773 0.7272289 6.269184e-36 -8.9748684e-29 -1.9998002e-35 -1.6315428e-35 -1.2935757e-29 0.7806268
3.6229924e-35 0.85141844 3.5906283e-27 -1.2380245 9.26689e-35 1.4114555e-24 0.9268791 4.2405733e-21
-1.5270624e-32 0.3952447 3.6570086e-35 8.965458e-30 0.16951911 0.7731779 1.1192538e-34 1.341292e-28
9.85994e-35 3.6056326e-35 2.1589362e-28 -0.15999825

4.bias f4 [3]
00000000: 5e81 e1bd 0003 3bbf 9f6d 723e
-0.11011003 -0.7305145 0.2367463
