ckpts_encoder_new_idea_3_no_hist_Smaller_Net/Encoder_epoch_470.pt (torch, 7447 bytes, 6 tensors)

0.weight f4 [20, 35]
00000000: 0926 1fbb 44a1 c4ba fcb8 1fbb d934 a1ba
00000010: 7de3 22bb da6a 9cba 56d0 09bb aa27 2dbb
00000020: d6aa faba 90a6 80ba e51d 00bb 4045 28bb
00000030: 9295 0abb 5738 09bb db17 14bb fd53 47bb
00000040: 2705 48bb 170c 53bb 5dac 0fbb 0747 35bb
00000050: 934a 76bb eda9 feba 914f 5fbb 5768 6bbb
00000060: ee78 58bb 519b 4cbc 8b09 74bc 564c 5fbc
00000070: e2de 43bc c210 54bc 1eef 4bbc bb31 45bd
00000080: 454b 56bd 583e 1fbd 04ee 3bbd 8f0d 3e40
00000090: b589 3cbf 3b30 a83f ab8e 823f fd7c 353d
000000a0: 3e9c 253d a71b 0abf 0d1d 21be 3b76 7f3f
000000b0: 0e9f d93e 1f6f a93e e9c7 da3d e70f 7c3d
000000c0: d9c8 34bd b014 743e 5b8b 7340 444e c6bf
000000d0: 34e5 7cbf 1d4b c0be a8b5 d03e 49f4 c7bd
000000e0: be97 3a3f 6ce0 b5be bf1b 293e 800b 633e
000000f0: 2532 7940 ea3e 6bc0 7e79 c3bd d1b7 69bf
00000100: 2a30 523f a07f d7bd 0a0b 9340 0309 f8bf
00000110: cc7d 183f a5ca 43bc 501b ba3c 22f6 ad3c
00000120: 9119 1a3c 1449 943c c294 d73b ea9e 993c
00000130: f324 3f3c 5d89 e13b 0136 113c 85c5 8e3c
00000140: d666 123c 206a d13b 9419 ec3b 7390 143c
00000150: ce13 dc3b 1352 253c c3e8 b03c 1c1a 14bc
00000160: 8e2c 693c cb0c b2ba 8d2d 00bc c142 1a3c
00000170: b31b e63b 269a e0bb 34e0 98ba 0d40 22bd
00000180: ea05 a2bb 59f3 e3bc 54aa ccbc aeec 22bc
00000190: e40b 07bd 21bc 97bb 4429 a13b 47aa 403c
000001a0: 34ab 62bc 49e4 433f 334c 0d40 714f 37bd
000001b0: aa1c 563f 7bb8 2a3f 94b9 b53f 784f b63f
000001c0: bbd4 47be 9342 de3e a5e7 813f cfae 653f
000001d0: d0be 393e 2f12 283f 44bc 5c3f c5f3 b33e
000001e0: 7395 8fbd 8ec8 0140 f3cc e0bd fc3a 4d3f
000001f0: 9b4a cd3e aa65 10bf cc51 413e f336 823f
00000200: 52cc 8abe 2462 a93d 1cee b6bf 8c0c c83f
00000210: 9ccf adbe f7fc d6be 6b1b 9b3e 2c1d a7bf
00000220: 4c17 22c0 4cd8 493f 739f 3abf 6442 36bd
00000230: 0337 b3bf 555a 643f 9cb5 983f 1ed2 3540
00000240: bcfe 1c3f 9db8 e33f 7970 0d3e dbe6 5cbe
00000250: 42d7 bd3f 1cec 4140 269d 653f 1b26 8b3e
00000260: 0013 3c3f 507e 9c3d e453 833d 1f61 63bf
00000270: 0969 07be 6e06 583f 9dad 2340 50b5 b33e
00000280: 75e8 83bf 9236 7c40 2163 90bf bcef 173e
00000290: 9a87 21bf 6f35 15bf a5db 4c3f d5d0 24be
000002a0: 8c53 9e40 f1b7 0bbb e146 ed3e eb48 2040
000002b0: 95bc b040 0b12 8c3f 2f52 1abd 1e60 1db9
000002c0: 379c 86b9 1757 a1b8 8769 1eb9 966b 1fb9
000002d0: 4165 55b9 4b48 32b9 c3ba 04b9 c31b aeb8
000002e0: 111d 30b9 50c5 f2b8 6837 13b9 6f97 1db9
000002f0: 60bf 25b9 2257 08b9 2a8b 74b9 1a83 13ba
00000300: 8697 1db9 8c71 c7b9 c7ac 26b9 f65f 4fb9
00000310: cb26 90b9 34be 86b9 2669 66b9 5d1e 71b9
00000320: 6d47 01ba 1048 ceba e5e7 4fb9 4741 5bba
00000330: 90b8 9bb9 9af6 82b9 a2dd 21bb 4d17 a6bb
00000340: 96cc 0bb7 80ac 24ba 6076 bdba 0547 8fba
00000350: 4ca3 9fba 3cb1 83ba 4ed5 a5ba 6210 84ba
00000360: be45 a0ba 1525 afba 7053 95ba ae12 74ba
00000370: a388 98ba 77c7 a7ba e645 9cba 7270 9fba
00000380: ebea a2ba 1225 0dbb 449b e7ba cb7f cdba
00000390: 0bca ccba a6cb d8ba 2064 f8ba e30b caba
000003a0: 9e80 f4ba 4e47 f8ba c0a3 f3ba 90f2 76bb
000003b0: 2d05 30bb dc45 eeba 0872 24bb 95f7 09bb
000003c0: 7648 12bb 4acb 6abc bb2e 30bc 117a c0bb
000003d0: c03d 2cbc 021a b2ba 5dc1 253b cb5d d5bb
000003e0: a9e7 003a 46ea a8ba 9aec 113b aa60 28ba
000003f0: 3d61 81bb c417 84bb fce6 d03a 4386 1abb
-0.0024284145 -0.0015001674 -0.0024371734 -0.0012299075 -0.0024854832 -0.00119337 -0.002102872 -0.0026421347
-0.0019124399 -0.0009815264 -0.0019549069 -0.0025676042 -0.002114628 -0.0020938122 -0.0022597227 -0.003041505
-0.003052065 -0.003220325 -0.0021922805 -0.0027660744 -0.003758107 -0.0019429304 -0.0034074525 -0.0035920346
-0.0033031064 -0.012488202 -0.014894853 -0.01362904 -0.011954995 -0.0129434485 -0.012447147 -0.04814313
-0.052317876 -0.038877815 -0.045881286 2.9695776 -0.73647624 1.3139719 1.0199789 0.04430865
0.040432207 -0.53948444 -0.15733738 0.9978978 0.42504162 0.3309259 0.10682661 0.061538603
-0.044136856 0.23836017 3.8053806 -1.5492635 -0.98787236 -0.37557307 0.40763593 -0.097633906
0.7288779 -0.35522783 0.1651449 0.22172356 3.8936856 -3.675715 -0.09544657 -0.91296107
0.8210474 -0.105223894 4.5950975 -1.937775 0.5956695 -0.01195017 0.022718102 0.02123553
0.00940551 0.018101253 0.0065790126 0.018752534 0.011666524 0.00688283 0.008862973 0.017428169
0.008935651 0.006390825 0.0072051976 0.0090676425 0.006716228 0.010090369 0.021595364 -0.009039428
0.014231814 -0.0013584135 -0.00782336 0.009415329 0.007022345 -0.0068543134 -0.0011663497 -0.039611865
-0.0049445527 -0.027825998 -0.024983563 -0.009944124 -0.032970324 -0.004630581 0.0049182493 0.011759347
-0.013834763 0.7652021 2.2077758 -0.044753496 0.8363749 0.66687745 1.4197259 1.4243002
-0.19514744 0.43410167 1.0148817 0.8971986 0.18139195 0.65652746 0.8622477 0.3514692
-0.07010927 2.027866 -0.10976591 0.8016813 0.40095982 -0.5640513 0.1887886 1.0173019
-0.2710901 0.08270672 -1.4291415 1.5628829 -0.33947456 -0.41989872 0.30294356 -1.3055778
-2.532672 0.7884567 -0.7289955 -0.04449691 -1.4001163 0.89200336 1.1930423 2.8409495
0.61326194 1.7790715 0.13812436 -0.2157244 1.4831316 3.030036 0.89692914 0.2717751
0.7346649 0.0764128 0.06412485 -0.8882007 -0.13223661 0.8438481 2.5574715 0.35099268
-1.0305315 3.9408307 -1.1280252 0.14837545 -0.63097537 -0.5828466 0.8002265 -0.16095288
4.9476986 -0.0021319354 0.4634314 2.5044506 5.5230203 1.0943006 -0.037676033 -0.00015008493
-0.0002567486 -7.6933e-05 -0.00015107366 -0.000152035 -0.00020350983 -0.00017002334 -0.00012658075 -8.3021376e-05
-0.00016795496 -0.000115762115 -0.00014039653 -0.000150291 -0.00015806919 -0.0001300243 -0.00023321496 -0.00056271406
-0.00015029134 -0.00038040837 -0.00015895358 -0.00019776807 -0.00027494723 -0.00025700184 -0.0002197368 -0.00022994862
-0.0004931603 -0.0015738029 -0.00019827446 -0.0008363914 -0.00029701414 -0.00024979265 -0.0024698754 -0.0050686956
-8.3326795e-06 -0.0006281808 -0.0014454834 -0.00109312 -0.0012179404 -0.0010047327 -0.0012652071 -0.0010075683
-0.0012227816 -0.0013362492 -0.0011392664 -0.0009310645 -0.0011637401 -0.0012800534 -0.0011922687 -0.0012164249
-0.001242963 -0.0021536988 -0.0017670174 -0.0015678344 -0.0015624178 -0.0016540184 -0.0018950738 -0.001541492
-0.0018654054 -0.0018942149 -0.001858823 -0.00376812 -0.0026858554 -0.0018178779 -0.0025092382 -0.0021052111
-0.0022321022 -0.014330694 -0.010753329 -0.0058739264 -0.010512769 -0.0013588073 0.0025292255 -0.006511425
0.00049173326 -0.0012887202 0.002226627 -0.00064230955 -0.0039483593 -0.0040311534 0.0015937979 -0.0023578561

0.bias f4 [20]
00000000: fbed 3bbd bd6d 37bc 55ac 62bc 7763 22bd
00000010: a0c7 bf3c a5ad 24ba 133e 2cbc 7f35 00bd
00000020: 2ee0 4abe f63a 94bd ff4e 3dbc 73cf 8b3d
00000030: c69b e43b 35e6 07bf aede 03bd 22ee 14bb
00000040: bd26 92be b447 33bb 7000 52bd 98a8 85bb
-0.045881253 -0.011195597 -0.0138350325 -0.03964564 0.023410618 -0.00062819786 -0.0105128465 -0.031301018
-0.1981208 -0.072378084 -0.011554479 0.06826677 0.0069765775 -0.53085643 -0.032194786 -0.0022724946
-0.2854518 -0.002735597 -0.05126995 -0.004078936

2.weight f4 [20, 20]
00000000: 9dbf 3783 a094 8a87 75c2 2085 7d85 b305
00000010: f952 2d88 5ce9 0382 4c11 ae81 de7d aa82
00000020: 4c5c 2c83 b41b 5a81 3641 3183 790c 7888
00000030: 1c28 f687 3178 8c86 a73d 6906 28d9 0403
00000040: 32cd 8603 2f0d 0103 cd0d d882 f42e 6202
00000050: f8ea 77bd 0aea e5be abba a03c 24fa 0b3f
00000060: 0ff6 323f 0ead b6b8 d461 c9bb d8c4 913c
00000070: ef63 013e 1fe6 0b3d 3dd0 4f3c 7cbf 0d40
00000080: 3349 0d40 7c37 1abe 8406 ec3f 168f a93a
00000090: de96 e83c 11ed 6d3b 99c2 6abd 6ab6 463c
000000a0: 8240 6c15 c16a 9d9a c898 0399 ded9 cb9a
000000b0: b34f c89a 7d49 6b13 2f6c 4c15 343c 7315
000000c0: c177 3f97 62c8 bf15 1d34 d995 dc0f b919
000000d0: 7217 859a cb0f a69a db05 8c99 73b4 d813
000000e0: aea2 2216 ab1f 5193 ea8a a615 6850 7514
000000f0: 2f50 6f3d 002b 6340 c095 b73c f959 53be
00000100: 82c9 d23f 4f37 ad3b 879e 2c3c fc21 823d
00000110: e2fb 1c3e a983 8ebc e290 243c 3b2f c03f
00000120: 8844 233d 34c9 573f 3270 1cc0 b687 ff3b
00000130: 1778 b9bc 34b7 903b fbac d43c 19b2 903c
00000140: 32a0 1604 7003 de87 89aa e985 183b 9088
00000150: 9d6a b008 875b 4f83 91ff 3583 5113 3e83
00000160: 7024 1685 c374 ab03 5579 3382 2dc3 0109
00000170: 464e e907 d415 aa87 2f65 c006 be18 a482
00000180: f791 9d85 c303 2783 b163 0305 c2e7 b882
00000190: 230d ed82 20be 0387 1f15 3403 3af7 4f04
000001a0: 4e43 ba87 29d5 1c82 34ef 3283 63c4 4503
000001b0: 6cf1 4083 cd97 4783 99ff de82 e8a7 4506
000001c0: c9ec 3b85 5475 0186 aed2 d403 9e44 9802
000001d0: 3776 a182 1eec 3a03 755b 8982 9086 f401
000001e0: 0161 d6bb 5827 80c0 f5e3 b9bb 05b9 c63f
000001f0: 2fb7 4340 e272 6abb 6ede 4f3c 1fbb 30bd
00000200: 0f5c 333e 7973 b63b d2bc 35bc 9031 723e
00000210: 39d4 86be d90a a5be 57fb 5a3f 6c25 d1bb
00000220: cce3 74bc c6ab 46b9 af1d 18bd 7712 93bc
00000230: d913 ad89 e64c 268d 222b 080c 329d e38d
00000240: e348 138f 5aa8 340b 0935 9d86 8073 900c
00000250: 40e1 b289 f0a5 a60a abbc b408 fb07 118f
00000260: 885a 748e 7525 918e 54c3 f90d 2e90 3309
00000270: dee7 eb0b ab50 4b09 cc56 588a 75e0 440a
00000280: 7b68 9918 4aa5 0e1d e6e4 0d18 34a8 fc1d
00000290: bb92 819d 70f2 1697 1a64 c417 b0cc fc98
000002a0: ba03 7399 1b8f 8118 1e2a b699 990b 3a9d
000002b0: c8a0 481d aadf a21d faf3 a51b 8567 d496
000002c0: abbf 131a 8779 c196 53ed 1b18 e338 e496
000002d0: 009a b73a afaf 973e 5bd6 30bd f13e 0cbb
000002e0: 2908 99bf 719f b638 810c 1c39 5452 103a
000002f0: 3e0b 2d3c a4d2 80b9 3e8e 8f3b e4d8 a43f
00000300: f32f f53d 8c87 c03c 3c14 64be f99f e7b6
00000310: 7ed8 463b 425f 3939 31e7 643b 5129 acb8
00000320: 27de 5e02 b280 fe86 7ed4 5083 8be7 7a05
00000330: 58cb a687 f88f 1603 68d6 6382 ccdf 2c02
00000340: addd d582 767d 3303 3905 3c83 f71d b606
00000350: d75f f805 9678 ea85 abc5 2a05 ea33 4683
00000360: b60e 6b02 d67e c302 838e 9a82 4cd8 d902
00000370: 6efd 6c10 d061 f995 9e66 3111 0b4f 8595
00000380: e2f9 9c96 acf3 810e e7c9 0c10 3d38 4110
00000390: b52b 4c91 62b2 b810 31fd 0910 0dcc 9b95
000003a0: d89d d295 a67b 1696 c301 2014 3c24 eb0d
000003b0: 19c1 6c11 1c9a 420e bd82 7b11 1431 e28e
000003c0: b89e 943c 72dc 5abf b281 163d ad43 9c3d
000003d0: 94cf 2640 013a 653a 1b67 d73b 880f 6bbc
000003e0: 2c8c 2fbe 59d6 8abc 8c64 8e3b 1ba1 973d
000003f0: 994f 5ebe 3128 5abe ff90 213f 4ae0 203b
-5.399883e-37 -2.0851286e-34 -7.55888e-36 1.6882115e-35 -5.2157828e-34 -9.691331e-38 -6.3942325e-38 -2.50515e-37
-5.065221e-37 -4.0060152e-38 -5.2090484e-37 -7.4644447e-34 -3.703754e-34 -5.283875e-35 4.3867724e-35 3.9040597e-37
7.922923e-37 3.7924827e-37 -3.1746269e-37 1.6617333e-37 -0.060526818 -0.4490512 0.01962026 0.5467856
0.69906706 -8.71067e-05 -0.006145695 0.017794058 0.12635778 0.034155007 0.012683925 2.2148123
2.2075927 -0.15060228 1.8439488 0.001293632 0.028392252 0.0036304633 -0.05731449 0.012128452
4.7710708e-26 -6.510615e-23 -6.803395e-24 -8.4310816e-23 -8.284682e-23 2.9697403e-27 4.1282814e-26 4.912095e-26
-6.186658e-25 7.7460434e-26 -8.772782e-26 1.9134957e-23 -5.504539e-23 -6.8681506e-23 -1.4478026e-23 5.4704002e-27
1.3137588e-25 -2.6395122e-27 6.7266034e-26 1.2385196e-26 0.05842608 3.5494995 0.022410274 -0.2063979
1.6467745 0.0052861343 0.010535843 0.06354138 0.1533046 -0.017396765 0.010044308 1.5014414
0.03986028 0.84291387 -2.4443479 0.0077981604 -0.022640271 0.0044163708 0.02596139 0.017663049
1.7705973e-36 -3.3404868e-34 -2.197386e-35 -8.680578e-34 1.0617679e-33 -6.09369e-37 -5.3484495e-37 -5.5858156e-37
-7.0596586e-36 1.0077284e-36 -1.3185664e-37 1.5619581e-33 3.5103949e-34 -2.5591586e-34 7.237105e-35 -2.4111836e-37
-1.4817828e-35 -4.9081207e-37 6.177901e-36 -2.7169393e-37 -3.483156e-37 -9.911217e-35 5.292149e-37 2.4446254e-36
-2.8025728e-34 -1.1522244e-37 -5.258409e-37 5.8118538e-37 -5.6700868e-37 -5.8655103e-37 -3.2766674e-37 3.717494e-35
-8.836188e-36 -2.4348402e-35 1.250861e-36 2.2373777e-37 -2.3724676e-37 5.4931537e-37 -2.0182835e-37 8.982453e-38
-0.0065423255 -4.0048027 -0.0056729265 1.5525213 3.0580556 -0.0035774042 0.012687309 -0.043147203
0.17515586 0.0055679646 -0.011092382 0.23651719 -0.26333788 -0.3223484 0.85539764 -0.006382635
-0.014946889 -0.00018946742 -0.037137683 -0.01795314 -4.16669e-33 -5.1245262e-31 1.0490039e-31 -1.40277985e-30
-7.261697e-30 3.4793393e-32 -5.9134764e-35 2.2256227e-31 -4.3063765e-33 1.6047637e-32 1.0877712e-33 -7.150589e-30
-3.0118911e-30 -3.578133e-30 1.5392833e-30 2.1614134e-33 9.086758e-32 2.4473166e-33 -1.04163464e-32 9.4792724e-33
3.965507e-24 1.8878996e-21 1.8339387e-24 6.6877763e-21 -3.429773e-21 -4.8773613e-25 1.2691472e-24 -6.5347155e-24
-1.2563558e-23 3.349022e-24 -1.883537e-23 -2.462289e-21 2.6552902e-21 4.3112306e-21 2.7454626e-22 -3.4315777e-25
3.0553716e-23 -3.1257526e-25 2.0153099e-24 -3.6871287e-25 0.0014007688 0.29626223 -0.043173175 -0.002139982
-1.1955615 8.7081346e-05 0.00014881977 0.0005505432 0.010561762 -0.00024571002 0.0043809703 1.287869
0.11972036 0.023502134 -0.22273344 -6.9029597e-06 0.0030341442 0.00017678461 0.003492784 -8.209295e-05
1.6373739e-37 -9.573328e-35 -6.1369635e-37 1.1797471e-35 -2.5096419e-34 4.4246306e-37 -1.6738858e-37 1.2700791e-37
-3.1424773e-37 5.2747394e-37 -5.525423e-37 6.850482e-35 2.3357014e-35 -2.204955e-35 8.0296675e-36 -5.8246565e-37
1.7269295e-37 2.8725475e-37 -2.2710064e-37 3.2009433e-37 4.673803e-29 -1.0072462e-25 1.3994459e-28 -5.384298e-26
-2.5360858e-25 3.2035603e-30 2.7765672e-29 3.8105863e-29 -1.6106231e-28 7.2850046e-29 2.7213538e-29 -6.2925937e-26
-8.506736e-26 -1.215592e-25 8.078283e-27 1.4491716e-30 1.867662e-28 2.3986547e-30 1.9840696e-28 -5.5760562e-30
0.01814209 -0.8549262 0.03674478 0.07630096 2.6064196 0.00087443 0.0065735704 -0.014346965
-0.17143315 -0.016947912 0.004345482 0.07403775 -0.21710052 -0.21304394 0.6311187 0.002454775

2.bias f4 [20]
00000000: f837 9787 8eed 81be 5ed8 0a9a 20e0 9d3e
00000010: 6de3 2208 c060 4387 554f 643c decf 928d
00000020: 8b36 e09b 5756 17bf d99c 7a87 10de f694
00000030: 26fd 3dbf c938 3d3e 0050 d48d eb9e 938b
00000040: d7df 638f bec8 6187 240e 8787 3e4f a3bd
-2.275285e-34 -0.25376552 -2.871251e-23 0.30835056 4.901744e-34 -1.4698602e-34 0.01393493 -9.047987e-31
-3.709294e-22 -0.5911612 -1.8854003e-34 -2.492724e-26 -0.742144 0.18478693 -1.3084768e-30 -5.6861454e-32
-1.1235074e-29 -1.6986111e-34 -2.0320853e-34 -0.079740986

4.weight f4 [3, 20]
00000000: dbb7 5687 bae3 04c0 7cd6 599a 8325 883d
00000010: 28ca e886 760c 8407 0808 283f 171f a50d
00000020: 670d a31d 1083 25bf 3a60 6307 2613 5f94
00000030: a675 ea3e d574 913e eafd 060e c8ca 830b
00000040: ad8f 0210 0721 2d07 b20a 4b07 e1b3 82bf
00000050: 5149 e608 f54f 103d e90d c998 dfac f83f
00000060: 48f7 1f09 4359 a485 3632 bd3f 0ab6 ea0c
00000070: df90 3d1c 6105 8fbd 9254 eb85 1511 7493
00000080: 6ba5 a9bf 4616 513f d7c9 6a0a 8fc8 238a
00000090: 53b8 140d 9dfd 0886 cad4 6686 6145 313f
000000a0: 647d a706 dea9 563f 3f04 fd1a fb40 97bf
000000b0: 9513 ea08 b13e 3107 2ed3 7c3f 2262 920d
000000c0: 8445 cc1d a1fc cc3e 416a 7d07 2080 b194
000000d0: c3a9 1d3e 913e 383f 9919 f50d 98d6 260b
000000e0: 44ef 0610 6dd6 6d07 db8f 6207 1197 63be
-1.6153601e-34 -2.0763993 -4.5047807e-23 0.0664778 -8.756574e-35 1.9868476e-34 0.65637255 1.0176395e-30
4.31596e-21 -0.6465311 1.710586e-34 -1.1262399e-26 0.45792884 0.28409448 1.663903e-30 5.0764476e-32
2.5748663e-29 1.3024779e-34 1.5275166e-34 -1.0211145 1.3859858e-33 0.035232503 -5.1971328e-24 1.9427756
1.92552e-33 -1.5455275e-35 1.4780948 3.616297e-31 6.2722096e-22 -0.06983448 -2.213036e-35 -3.0805552e-27
-1.3253607 0.8167461 1.1304652e-32 -7.8858854e-33 4.5827893e-31 -2.5765083e-35 -4.3414525e-35 0.6924649
6.3002663e-35 0.83852947 1.0464521e-22 -1.1816705 1.4087966e-33 1.3334423e-34 0.98759735 9.021569e-31
5.4070228e-21 0.4003649 1.906483e-34 -1.7922969e-26 0.1539679 0.7197047 1.5105453e-30 3.213188e-32
2.6611164e-29 1.7892912e-34 1.7044626e-34 -0.22225596

4.bias f4 [3]
00000000: 7049 86bd ac98 3bbf 1f95 6f3e
-0.06556976 -0.73279834 0.23396729
