ckpts_encoder_new_idea_3_no_hist_Smaller_Net/Encoder_epoch_490.pt (torch, 7447 bytes, 6 tensors)

0.weight f4 [20, 35]
0	0xbdcd0a99	-0.10011787
1	0xbe035434	-0.1282509
2	0xbdfb30bf	-0.12265157
3	0xbde261df	-0.11053824
4	0xbdb700aa	-0.089356735
5	0xbdf8e70c	-0.12153444
6	0xbde51b93	-0.111869
7	0xbded88f2	-0.11598386
8	0xbdf4d82f	-0.11955296
9	0xbdee7d33	-0.116449736
10	0xbde9a7b7	-0.11408942
11	0xbdd3d6cd	-0.103437044
12	0xbdc88e65	-0.097927846
13	0xbdd652d2	-0.104650155
14	0xbdde1421	-0.10843683
15	0xbe022611	-0.12709834
16	0xbe1bf9be	-0.15231988
17	0xbe0edb06	-0.13950738
18	0xbe17b525	-0.14815195
19	0xbe0b5ca7	-0.13609563
20	0xbe085bd3	-0.13316278
21	0xbe10e5c2	-0.14150146
22	0xbe07c683	-0.1325932
23	0xbdec6ba3	-0.115439676
24	0xbe0177a8	-0.12643301
25	0xbe06ce3c	-0.1316461
26	0xbe287a8a	-0.16452995
27	0xbe07d3b7	-0.13264357
28	0xbe1b9bac	-0.15196103
29	0xbe01acec	-0.1266362
30	0xbdd34ce1	-0.10317398
31	0xbd3f156a	-0.04665128
32	0xbd76b08c	-0.060226962
33	0x3c4b6757	0.012414775
34	0xbe16422f	-0.14673685
35	0x403ebbda	2.9802155
36	0xbf372a91	-0.71549326
37	0x3fa4fee6	1.2890289
38	0x3f851857	1.0398053
39	0x3d32e10b	0.04367165
40	0x3d824388	0.06360537
41	0xbf0aa6ea	-0.5416094
42	0xbe210d53	-0.15727739
43	0x3f7a4230	0.97757244
44	0x3ee54f20	0.4478693
45	0x3ea28a56	0.31746167
46	0x3de7370d	0.11289797
47	0x3d83c034	0.06433144
48	0xbd2ad7a4	-0.041709557
49	0x3e731eec	0.23742265
50	0x40731f94	3.7988024
51	0xbfc53c50	-1.5409031
52	0xbf8197dc	-1.0124469
53	0xbeb97e59	-0.36229208
54	0x3ec376d4	0.38176596
55	0xbdc9185d	-0.098191
56	0x3f3d151b	0.7386033
57	0xbebd0e45	-0.3692495
58	0x3e25e6b6	0.1620129
59	0x3e6191fd	0.22028346
60	0x40783a3c	3.8785543
61	0xc06c91ff	-3.696411
62	0xbd3b8a60	-0.04578626
63	0xbf698f11	-0.91233927
64	0x3f52e0ad	0.8237408
65	0xbdaaac93	-0.08333697
66	0x40932fb3	4.5995727
67	0xbff42c74	-1.9076066
68	0x3f38f822	0.7225362
69	0xbc6d9f8e	-0.014503373
70	0xbc3006be	-0.010743795
71	0xbc072e6c	-0.008250814
72	0xbc45d863	-0.012075516
73	0xbc351137	-0.011051468
74	0xbc1475d1	-0.009061293
75	0xbc190c55	-0.009341319
76	0xbbfd2c9a	-0.007726264
77	0xbc1ba2f9	-0.009499305
78	0xbc23be59	-0.009994113
79	0xbc2a7b47	-0.010405368
80	0xbc0c2ef5	-0.008556117
81	0xbc11f303	-0.008908036
82	0xbc0f8b0a	-0.008761177
83	0xbc064f07	-0.0081975525
84	0xbc0c6d65	-0.008571004
85	0xbc7eab40	-0.015543759
86	0xbc521499	-0.012822294
87	0xbca06414	-0.019578971
88	0xbc6f2f6b	-0.014598708
89	0xbc7d6f02	-0.015468361
90	0xbc72eaa1	-0.014826448
91	0xbc81de11	-0.01585296
92	0xbc50ddee	-0.012748225
93	0xbc5a3527	-0.013318337
94	0xbc56971b	-0.01309755
95	0xbcba5810	-0.02274707
96	0xbcac1b29	-0.021009045
97	0xbcef8728	-0.029239252
98	0xbcbe5cb1	-0.023237558
99	0xbcb6c8e8	-0.022312596
100	0xbcaf594f	-0.02140489
101	0xbd1be2e3	-0.038058173
102	0xbd1c2bac	-0.038127586
103	0xbd2020ef	-0.039093908
104	0xbcc19abd	-0.023633355
105	0x3f483ed0	0.78220844
106	0x400c03ab	2.1877239
107	0xbd4e749d	-0.05040418
108	0x3f581666	0.8440918
109	0x3f2a9e7a	0.66648066
110	0x3fb44209	1.4082652
111	0x3fb36353	1.4014686
112	0xbe59491d	-0.21219297
113	0x3ed60d37	0.41806957
114	0x3f81a86f	1.0129527
115	0x3f601518	0.87532187
116	0x3e2b44ef	0.16725515
117	0x3f25cdf8	0.6476741
118	0x3f587dcb	0.84566945
119	0x3eaa35d5	0.33244196
120	0xbd4f91d3	-0.05067618
121	0x400070a6	2.0068755
122	0xbde8dfae	-0.113707885
123	0x3f4ae23e	0.7925147
124	0x3ec5d419	0.3863838
125	0xbf135583	-0.57552356
126	0x3e4648ce	0.1936371
127	0x3f7f7b75	0.99797755
128	0xbe8adfe6	-0.27123946
129	0x3d926132	0.07147445
130	0xbfb4f9f3	-1.4138778
131	0x3fc53b72	1.5408766
132	0xbeace899	-0.33771208
133	0xbed9d4db	-0.42545208
134	0x3e9545df	0.2915487
135	0xbfa74379	-1.3067466
136	0xc021e838	-2.5297985
137	0x3f45c9c2	0.77260983
138	0xbf37b0ac	-0.71753955
139	0xbd1eca45	-0.038767118
140	0xbfb3e236	-1.4053409
141	0x3f5c9193	0.8615963
142	0x3f8f92b1	1.1216642
143	0x40358e54	2.836812
144	0x3f1db35e	0.6160182
145	0x3fdfa591	1.7472402
146	0x3de4444b	0.11145838
147	0xbe87451d	-0.26419917
148	0x3fb89e24	1.4423261
149	0x4040b960	3.0113144
150	0x3f5db6b1	0.8660689
151	0x3e8113fe	0.25210565
152	0x3f38ea45	0.72232467
153	0x3d4e5c17	0.050380792
154	0x3d0dd15e	0.034623496
155	0xbf661092	-0.89869034
156	0xbe3b8007	-0.18310557
157	0x3f4d2fff	0.8015136
158	0x4020c7a8	2.512186
159	0x3eaa7870	0.33295012
160	0xbf87dd5b	-1.0614427
161	0x407b17ff	3.9233396
162	0xbf93d31b	-1.1548799
163	0x3e15d9fd	0.14633937
164	0xbf283bab	-0.65716046
165	0xbf18f4d5	-0.59748584
166	0x3f3da64f	0.7408189
167	0xbe147a88	-0.14499867
168	0x409d27d1	4.9111104
169	0x3bdd8fb7	0.006761517
170	0x3ef7d96c	0.48408067
171	0x401f6654	2.4906206
172	0x40afd3f4	5.494623
173	0x3f8ed1ee	1.1157815
174	0xbd2c47fd	-0.04206084
175	0xb9d47fac	-0.00040530914
176	0xb9cb3d42	-0.00038764818
177	0xb9d67a7e	-0.00040908525
178	0xb9b7e272	-0.00035073195
179	0xb9759ebb	-0.00023424152
180	0xb9b97b61	-0.00035377874
181	0xb9c26cfe	-0.0003708377
182	0xb9b156bf	-0.00033824702
183	0xb9ca460a	-0.00038580626
184	0xb9b15c9a	-0.00033829064
185	0xb9c3fdec	-0.00037382485
186	0xb98e8af4	-0.0002718788
187	0xb98e40b3	-0.00027132555
188	0xb9a69c50	-0.0003177845
189	0xb9a84ef7	-0.0003210229
190	0xba1567a5	-0.0005699343
191	0xba063d6b	-0.00051208463
192	0xb9e02f20	-0.0004275972
193	0xb9fc0cc4	-0.00048074697
194	0xb9dea51a	-0.0004246615
195	0xb9c02d41	-0.0003665481
196	0xba00c9ac	-0.0004912864
197	0xb9e73412	-0.0004409855
198	0xb9a1520c	-0.00030769443
199	0xb9c0c5a9	-0.00036768362
200	0xba284088	-0.00064183073
201	0xb9f5912e	-0.0004683821
202	0xb9690c9a	-0.00022225306
203	0xba021f3a	-0.00049637596
204	0xb98e6570	-0.00027159927
205	0xb966f358	-0.00022025162
206	0xba156938	-0.0005699578
207	0xb81c3e7a	-3.7251484e-05
208	0x3a441ee0	0.00074814074
209	0xb98e6385	-0.00027158498
210	0x3b561f22	0.0032672365
211	0x3b13e870	0.0022568963
212	0x3b7c6a0e	0.0038515362
213	0x3a5d6338	0.00084452657
214	0x3a512b38	0.00079791574
215	0x3aaa3fc9	0.001298898
216	0x3b17a6b2	0.002314013
217	0x3b4b6a09	0.0031038544
218	0x3b1156a6	0.002217689
219	0x3a152f10	0.0005690912
220	0x3afe6a6a	0.0019410376
221	0x3aec2046	0.0018014989
222	0x3a763931	0.00093926775
223	0x3ad0e028	0.0015935944
224	0x3af4b59e	0.0018669849
225	0x3ac99ce5	0.0015381841
226	0xbac6526d	-0.0015130766
227	0x3ae541fb	0.0017490977
228	0xbb04b11c	-0.0020247167
229	0xba96ae2a	-0.0011495997
230	0x387f68ca	6.089433e-05
231	0xbadd298a	-0.0016873342
232	0xbab67298	-0.001391965
233	0xbb0e4628	-0.0021709297
234	0xbaf2fbd4	-0.0018538185
235	0xbcd2c3ee	-0.025728192
236	0xbcea59cd	-0.028607273
237	0xbc7b676c	-0.015344482
238	0xbce0c300	-0.027436733
239	0xbcc2aa51	-0.023762854
240	0xbcbd088e	-0.023075368
241	0xbe1eb2c4	-0.15497881
242	0xbe219334	-0.1577881
243	0xbdf100b3	-0.117677115
244	0xbe591992	-0.2120116
245	0x3dcd5763	0.10026433
246	0xbd0f18eb	-0.034935873
247	0x3dff2d26	0.12459783
248	0x3da7dc66	0.081963345
249	0x3cb435b2	0.02199826
250	0x3c1cb2b4	0.0095640905
251	0xbd527667	-0.05138245
252	0x3d1a8a84	0.037729755
253	0x3cd8c19d	0.02645951
254	0x3d4a66e8	0.049414545
255	0xbcfae070	-0.030624598

0.bias f4 [20]
0	0xbe16424d	-0.14673729
1	0xbc61797a	-0.013761872
2	0xbcc19b0d	-0.023633504
3	0xbd0c84bd	-0.034306277
4	0x3c973df7	0.018462164
5	0xb98e6344	-0.0002715831
6	0xbe5919a4	-0.21201187
7	0x3ce5a59d	0.028033072
8	0xbd89046f	-0.06690299
9	0xbe54a391	-0.2076552
10	0xbdbb7c36	-0.09154551
11	0x3d4d9fe6	0.05020132
12	0x3c4a9b98	0.012366198
13	0xbf09b6c5	-0.5379451
14	0xbd1e2ba8	-0.038615853
15	0xbe476a14	-0.1947406
16	0xba3ba56c	-0.00071581337
17	0xbce2d844	-0.027691014
18	0xbc4e9d4c	-0.012610745
19	0xbb3b1b78	-0.0028550308

2.weight f4 [20, 20]
0	0x831f58ac	-4.682769e-37
1	0x86cd8d40	-7.731998e-35
2	0x81e597f6	-8.433937e-38
3	0x851d3a9c	-7.3928694e-36
4	0x875e4785	-1.6722441e-34
5	0x82bb8217	-2.7551848e-37
6	0x02594ec3	1.5965246e-37
7	0x85a619d3	-1.5620051e-35
8	0x82ad782d	-2.5489043e-37
9	0x02794de9	1.831599e-37
10	0x0339b565	5.4574844e-37
11	0x85c407bf	-1.8434597e-35
12	0x8639405f	-3.4841925e-35
13	0x86154d36	-2.808051e-35
14	0x846d18e7	-2.787065e-36
15	0x029b0f80	2.27841e-37
16	0x82ba7606	-2.7397986e-37
17	0x822bc057	-1.2618295e-37
18	0x8314c353	-4.371751e-37
19	0x0341438a	5.6795133e-37
20	0xbdd50cd8	-0.104028404
21	0xbee7443b	-0.45169243
22	0x3cc8f1c3	0.024529343
23	0x3f0ed5c6	0.5579494
24	0x3f2fe5b5	0.6870988
25	0x390a51dd	0.00013191202
26	0x3dc9d6ab	0.09855398
27	0x3cd3f99a	0.025875855
28	0xbbafb97e	-0.0053626886
29	0x3de85008	0.1134339
30	0x3e1ef6b2	0.15523794
31	0x400d5d39	2.2088149
32	0x400f0b50	2.2350655
33	0xbe297b26	-0.16550884
34	0x3fe90ef4	1.8207688
35	0xbd3c567f	-0.045980927
36	0x3b0739ab	0.0020633738
37	0x3d8b92cc	0.06815109
38	0xbb0ebb7b	-0.0021779228
39	0x399a8fb3	0.00029480233
40	0x0f530d27	1.0405636e-29
41	0x923f7b50	-6.0420968e-28
42	0x0de89e74	1.433625e-30
43	0x9279aa0f	-7.878016e-28
44	0x93bbe241	-4.742854e-27
45	0x0c773785	1.9044895e-31
46	0x0e96d50c	3.718301e-30
47	0x90866801	-5.3013924e-29
48	0x0f1c8860	7.717659e-30
49	0x0e8ed415	3.520993e-30
50	0x8f432ef0	-9.623282e-30
51	0x92ff8b13	-1.6127047e-27
52	0x930a3ce2	-1.7448066e-27
53	0x9298b589	-9.6373e-28
54	0x8ef19584	-5.9555065e-30
55	0x0e902bce	3.5540923e-30
56	0x0c650b5e	1.7644939e-31
57	0x0e2a7b7f	2.1013579e-30
58	0x0d9decb8	9.73286e-31
59	0x0bc606d5	7.6277105e-32
60	0xbe363c62	-0.17796472
61	0x40615d48	3.5213184
62	0xbca8efc0	-0.020622134
63	0xbe59a2ea	-0.21253553
64	0x3fd1f476	1.6402729
65	0x3ab91b94	0.0014122599
66	0xbdc4b0e7	-0.09604054
67	0x3d8548ab	0.06508001
68	0xbe0cda78	-0.13755214
69	0xbdfcf4dc	-0.12351391
70	0x3c2336bd	0.009961781
71	0x3fc8b90b	1.5681471
72	0xbd68153b	-0.056660872
73	0x3f5868ac	0.84534717
74	0xc01af655	-2.421285
75	0xbca8cbd1	-0.020605
76	0xbbc36331	-0.0059627523
77	0xbd14f34f	-0.03636485
78	0xb8dc4e42	-0.00010504994
79	0xbc0319b3	-0.008001733
80	0x0e417d58	2.3849437e-30
81	0x909bbf04	-6.1431026e-29
82	0x0c7ddaf3	1.9556299e-31
83	0x9084929a	-5.2290695e-29
84	0x91b8cb69	-2.9155442e-28
85	0x8b0a6df2	-2.6660547e-32
86	0x8fcc4167	-2.0141145e-29
87	0x8ed4be2a	-5.2445156e-30
88	0x0e7733b3	3.0469993e-30
89	0x0e486b59	2.470359e-30
90	0x8dc1d3dc	-1.1945547e-30
91	0x91497c92	-1.589449e-28
92	0x91498488	-1.5896944e-28
93	0x91191430	-1.2075793e-28
94	0x0ec43f05	4.8378416e-30
95	0x8d0ddfb3	-4.371825e-31
96	0x0c79414f	1.9201915e-31
97	0x8e306fcc	-2.1747503e-30
98	0x0da4bf7a	1.0153377e-30
99	0x0b86bf13	5.190242e-32
100	0x8430cf9b	-2.0784028e-36
101	0x88be69cc	-1.1460082e-33
102	0x84ed4324	-5.578009e-36
103	0x0895e149	9.020576e-34
104	0x895f0357	-2.6844219e-33
105	0x030c69fb	4.126396e-37
106	0x05297d25	7.969327e-36
107	0x87ed1d91	-3.5677174e-34
108	0x84880b04	-3.1983563e-36
109	0x05a7e776	1.578963e-35
110	0x84e702f8	-5.4310565e-36
111	0x8735f3b2	-1.3688542e-34
112	0x8832731b	-5.3700232e-34
113	0x087c6bd5	7.5960248e-34
114	0x076a8db1	1.7645843e-34
115	0x0508e498	6.436675e-36
116	0x82f97b47	-3.665802e-37
117	0x83faa674	-1.4731895e-36
118	0x027f35a6	1.8749838e-37
119	0x01a95faa	6.2218067e-38
120	0xbe02ecf5	-0.12785704
121	0xc07f49dc	-3.988883
122	0xbc18f0f1	-0.009334789
123	0x3fc57709	1.5426952
124	0x4042a46f	3.0412862
125	0xb803b90d	-3.1405176e-05
126	0x3d2479c4	0.040155187
127	0xbd9450de	-0.07241987
128	0x3db2ea0d	0.08736048
129	0xbd219149	-0.039445195
130	0x3d6a7ae4	0.057246104
131	0x3e89f5a1	0.26945212
132	0xbeaafd61	-0.33396438
133	0xbea25b7a	-0.31710416
134	0x3f5e068e	0.8672875
135	0xbcdf7c5c	-0.027280979
136	0x3c638efa	0.013889069
137	0xbd97053e	-0.07374047
138	0xba4fbdc0	-0.00079246983
139	0x3bcca967	0.0062457803
140	0x0e7588ec	3.0264507e-30
141	0x916a39ae	-1.8477119e-28
142	0x0c467d3b	1.529105e-31
143	0x91739145	-1.9214085e-28
144	0x928b9db6	-8.811012e-28
145	0x0cb0edfe	2.726033e-31
146	0x0d928c57	9.03173e-31
147	0x8f8e2718	-1.401734e-29
148	0x0f1ac781	7.631209e-30
149	0x0d931f1a	9.067062e-31
150	0x8e80f790	-3.179283e-30
151	0x922b227b	-5.4000586e-28
152	0x9207d68d	-4.2862943e-28
153	0x91980637	-2.3985202e-28
154	0x0fa86fde	1.6609169e-29
155	0x8da1b2d2	-9.9654405e-31
156	0x0b81c4d3	4.998514e-32
157	0x0d99aaa9	9.470438e-31
158	0x0ccc15f8	3.1444399e-31
159	0x0b027c2d	2.513051e-32
160	0x1910f770	7.494595e-24
161	0x9c3a385a	-6.161507e-22
162	0x182fad5b	2.2705742e-24
163	0x9bf75680	-4.0918622e-22
164	0x9d4fcfbf	-2.7503624e-21
165	0x16b03b7e	2.8471878e-25
166	0x182890c4	2.178658e-24
167	0x1984f501	1.3747436e-23
168	0x19364277	9.422602e-24
169	0x17e0f780	1.45381385e-24
170	0x17aeea91	1.1303699e-24
171	0x9c68a879	-7.6980107e-22
172	0x9c86d856	-8.923298e-22
173	0x9c458b6a	-6.536202e-22
174	0x1b0f1cc2	1.1837975e-22
175	0x197f44e5	1.3197104e-23
176	0x16fb797b	4.0627902e-25
177	0x17e3176a	1.4675442e-24
178	0x1778bcb7	8.0371313e-25
179	0x15c2be13	7.865586e-26
180	0xbd15d923	-0.03658403
181	0x3eaf92be	0.34291643
182	0xbb8f8f87	-0.0043811235
183	0xbd123762	-0.03569735
184	0xbf937c56	-1.1522319
185	0xb8e0cfad	-0.00010719835
186	0xbc648a68	-0.013949014
187	0x3e853ffa	0.26025373
188	0xbd5570f2	-0.052109666
189	0xbc8b5799	-0.017009543
190	0x3ae706ec	0.0017625964
191	0x3fabf4d6	1.3434093
192	0x3e2ce21c	0.16883129
193	0xbd43cee4	-0.04780473
194	0xbe759cc7	-0.23985587
195	0x3d40a2c3	0.04703022
196	0xb8f8a60c	-0.0001185649
197	0xbbea967b	-0.007159052
198	0xba92abfe	-0.0011190174
199	0xb98cd79c	-0.00026863522
200	0x8a8d5b2b	-1.36121e-32
201	0x8e665c8a	-2.8394245e-30
202	0x0a790b66	1.1991058e-32
203	0x0afa15d9	2.4082342e-32
204	0x8fdcf837	-2.1789284e-29
205	0x08d3752d	1.27266485e-33
206	0x0b3994e5	3.574172e-32
207	0x8d1ecd19	-4.8934386e-31
208	0x89116b24	-1.7504117e-33
209	0x0b669e75	4.44156e-32
210	0x8b244f4d	-3.164491e-32
211	0x8f65957a	-1.131936e-29
212	0x8f165b65	-7.413173e-30
213	0x8ef395dc	-6.0048434e-30
214	0x0e9a869d	3.809356e-30
215	0x0a3a2a23	8.963499e-33
216	0x0987ea5e	3.2720466e-33
217	0x0a0b42ea	6.705192e-33
218	0x0a613f61	1.0845276e-32
219	0x085f1f3b	6.7143333e-34
220	0x0d534c4c	6.5111234e-31
221	0x918bcdb0	-2.2057098e-28
222	0x0d1b29e9	4.781351e-31
223	0x901160b2	-2.86707e-29
224	0x91f473ff	-3.85679e-28
225	0x0abe57ca	1.8329357e-32
226	0x0cea6987	3.611692e-31
227	0x90bc2fe8	-7.4226736e-29
228	0x0d10da00	4.4635834e-31
229	0x0d0d0ebd	4.346672e-31
230	0x0c379d74	1.4145189e-31
231	0x0f9e4a88	1.5608711e-29
232	0x90a1e3dd	-6.385438e-29
233	0x900bdd1c	-2.7583253e-29
234	0x0fed42b9	2.3395705e-29
235	0x0d1846e9	4.692397e-31
236	0x892065fc	-1.9307252e-33
237	0x0c41db82	1.4934235e-31
238	0x0bbc684a	7.257188e-32
239	0x09a85c51	4.0531343e-33
240	0x3e21bea6	0.15795383
241	0xbf5a4c94	-0.852731
242	0x3baf02e7	0.005340922
243	0x3dc01760	0.093794584
244	0x4027a3f3	2.6193817
245	0x3ad218d6	0.001602913
246	0x3c022b40	0.007944882
247	0xbe1aa669	-0.15102543
248	0xbe4ab334	-0.19794923
249	0x3da3891b	0.07985135
250	0xbdbd4b2b	-0.09242853
251	0xbdd828ac	-0.105546325
252	0xbd4641cd	-0.048402596
253	0xbe51c70f	-0.20486091
254	0x3f1f6e4d	0.6227768
255	0x3beb1ea2	0.0071752826

2.bias f4 [20]
0	0x8601ee83	-2.4437434e-35
1	0xbe7aa950	-0.2447865
2	0x91f8ead9	-3.9272237e-28
3	0x3ea59b17	0.32344887
4	0x905d71b8	-4.367217e-29
5	0x88453c18	-5.935317e-34
6	0xbcf3db0d	-0.029767537
7	0x90f82e3a	-9.7889976e-29
8	0x9bab4946	-2.833693e-22
9	0xbf083046	-0.5319866
10	0x8dd9758a	-1.3401954e-30
11	0x906cac8c	-4.667572e-29
12	0xbf3663ce	-0.7124604
13	0x3e557ac4	0.20847613
14	0x86018625	-2.4360757e-35
15	0x867aaddc	-4.7147506e-35
16	0x8f85a69d	-1.317899e-29
17	0x8a48572d	-9.646046e-33
18	0x8bf5796a	-9.455325e-32
19	0xbdcd7213	-0.100315236

4.weight f4 [3, 20]
0	0x070da0b7	1.0654891e-34
1	0xc002d200	-2.0440674
2	0x1203d771	4.1601863e-28
3	0x3e887ce7	0.26657793
4	0x10285baa	3.3202773e-29
5	0x8927d943	-2.020405e-33
6	0x3f55bb69	0.8348909
7	0x1106e1e2	1.0640342e-28
8	0x1a9a9140	6.392757e-23
9	0xbf2cf2bc	-0.67557883
10	0x0e204eea	1.9759518e-30
11	0x90b6c687	-7.209222e-29
12	0x3eb96167	0.36207125
13	0x3ebf1398	0.37319636
14	0x06fd3c89	9.525697e-35
15	0x06f9feb3	9.4037637e-35
16	0x8fa5c987	-1.6347882e-29
17	0x88dfebdf	-1.3476777e-33
18	0x8999e21f	-3.7046053e-33
19	0xbf672f80	-0.90306854
20	0x85d99297	-2.046043e-35
21	0x3e0ab31a	0.13544884
22	0x91a25545	-2.5611645e-28
23	0x3ffb8ad1	1.9651738
24	0x8fe75e0f	-2.2814589e-29
25	0x08ac9c76	1.0388657e-33
26	0x3fb5e7d9	1.4211379
27	0x907caae5	-4.982989e-29
28	0x9b5ddf5a	-1.835286e-22
29	0x3d9d52b4	0.0768179
30	0x8dced1ef	-1.274627e-30
31	0x8f745f26	-1.2048454e-29
32	0xbfaba67c	-1.3410182
33	0x3f50126f	0.8127813
34	0x858fa038	-1.350651e-35
35	0x03b73991	1.076899e-36
36	0x8f311ffe	-8.732935e-30
37	0x8a06b4f1	-6.4858966e-33
38	0x8b959559	-5.7617426e-32
39	0x3f4fcc1d	0.8117083
40	0x86b5c9ce	-6.838116e-35
41	0x3f593a8e	0.8485497
42	0x120ac15c	4.3783456e-28
43	0xbf9527f8	-1.1652822
44	0x0fac2c15	1.6977489e-29
45	0x08abd4c1	1.0341706e-33
46	0x3f776db9	0.966518
47	0x1031f235	3.5093685e-29
48	0x1b28ae57	1.3952967e-22
49	0x3edbcffa	0.4293211
50	0x0ea4c54b	4.0619108e-30
51	0x90097642	-2.710959e-29
52	0x3e45c193	0.19312124
53	0x3f3caf6c	0.7370517
54	0x86bf68dd	-7.20003e-35
55	0x872567b0	-1.2443691e-34
56	0x8f319f1e	-8.7574186e-30
57	0x0a51411c	1.007523e-32
58	0x0a8a0437	1.3290502e-32
59	0xbe25efb1	-0.16204716

4.bias f4 [3]
0	0xbe10da61	-0.14145805
1	0xbf36e0d8	-0.71436834
2	0x3e814873	0.25250587
